fold_save/0_141_4_125_2.6_3.95.pth (torch, 789489 bytes, 32 tensors)

fingerprints_hidden.0.1.weight f4 [125, 1024]
00000000: 2079 3ebd 2a22 d1bc 1f7a 153d ae0a c4bc
00000010: 5614 6ebd a135 daba 1991 4f3c 48c1 cc3c
00000020: 4ba3 e2bc ed4b 6d3d eb82 a73b 976a 50bd
00000030: c753 3a3d c02b 21bd 1695 9dbc 3c32 8dbc
00000040: efd7 b13c 1b85 c23c 270f 863c 803e 133a
00000050: fbbf 433d 3795 85bc 1a5b ca3c 641c 7d3c
00000060: 1b90 113d 3614 b9bb ceee 3dbc dafa 523d
00000070: 7dd0 3b3c 4889 0abd 16e6 38bc 4063 243d
00000080: f695 6abc fe52 d33b 2c11 b8bb 9a90 f23c
00000090: 1ddf 05bd 6dbb 953a f109 1ebc b039 4abd
000000a0: 2e0a 663d 9409 8abd eb0f 92bc 8d33 3abd
000000b0: a90c 2e3d cc5d 07bc 03ab 5c3d c96a b8bc
000000c0: 40bf c3bb e51b 19bd bf8a 33bc a3f2 813c
000000d0: 6ceb 7d3d 10cf c23c 9fc1 e6bb 9798 a9bc
000000e0: 637c bcbd d407 2f3d b8f7 07bc 8b8e 3ebd
000000f0: b5a6 e63c 5d43 0bbc b1f9 083d 6d8b bcbb
00000100: dd5e a63c b652 9cbb 2cb2 7f3c bf25 b03b
00000110: 2321 823b e94d e53c 266f 13bc 9073 b2bc
00000120: d49f e639 9ba6 5abd 53e3 ff3b 33e2 b13c
00000130: a4f4 6639 52a2 7f3b 419c 273c d716 cd3c
00000140: a20d 173d 227a 8abc 4e41 5a3b 3ea4 52bd
00000150: a819 993b c6a4 10bd 021b 9a3c c225 723d
00000160: 8ae2 6bbd 817c 2d3d a172 93bb 4a1a 7dbd
00000170: 7230 0d3c f40c 35b6 e49c b8bc c2a0 21bd
00000180: 312f a0bd e888 243b 16d7 0fbd e1a4 9d3c
00000190: 4425 a1bb 13ad e4bc 63ad 773b 2713 82bb
000001a0: c503 44bd 4385 a0bc 8151 36bc 74cd fc3c
000001b0: 8f63 8bba 8bf7 593c 5b2d 1bbd 6338 e43c
000001c0: be58 70bc 96c1 8fbd 78b7 183d 0078 78bd
000001d0: bc19 59bc 7bcb c3bc 540e 2fbc 45db 4e3d
000001e0: 53d4 823c 4727 2bbd e05e f63c df04 86bc
000001f0: e31b 2abc a554 b7bc 4be3 c3bb 1d15 d7bc
00000200: a577 363c a4ea 32bd 5c76 f0bc ae8e c4bc
00000210: a150 0c3a 6bab 553b 8aad ed3b 463b 34bd
00000220: 4172 06bd 7bb2 a03c 1e47 7e3c 370c 89bb
00000230: 0b7e 69bb fa25 dabc cda6 0cbd dcaa c1bc
00000240: e868 47bc b8a1 92bb 5d05 bfbc a05f dab8
00000250: 4376 b63d add4 423d 4a2d c4bc e71e 36bd
00000260: bbb3 a1bb ad67 ee3c a201 da3c 653d 49b9
00000270: c8a9 b03b 81a8 c6bc bc1f 823b 20e2 27bd
00000280: f556 d6bb e322 b0bc cb30 88bd 44c8 73bd
00000290: c8f1 81bc 7c7e 49bc 0ed6 2cbc 2dae 483c
000002a0: 8e44 423d 29f9 e93c 1c1b 75bb f94e f5bc
000002b0: 28c5 0ebd 17ff ca3b 60a8 d8bc 225e 043b
000002c0: b1d6 443d 7b11 03bd e3f4 eeb7 937a 0c3c
000002d0: 35fc e83c b457 583c 0e2f 7fbc 4fb6 4e3b
000002e0: 8b86 2bbd 5989 9bbc c59d e4bb c5d6 0a3d
000002f0: 6c59 19bc 0040 fdbc 06d2 843c 870c 063d
00000300: 9929 1c3d f9b6 8a3c 6354 d4bb fea9 8fbc
00000310: cfa4 13bc d431 95b9 ed09 5d3d d096 63bc
00000320: 8f13 3f3c ddc4 843d 21f6 6ebc c9c7 95bc
00000330: 08d4 22bd 59ae 48bc c2cb 2abd 3da6 a2bc
00000340: 9052 d93c 5d44 383d 6913 bb3b 3d4d de3c
00000350: 2e88 43bb dbd9 153d 90d4 f33c 8b43 a23c
00000360: 7fa5 2a3d 94f2 073d 373c 12bd c1c4 7cbd
00000370: d268 963c 5cd4 a1bc 994e babd 9a54 4e3c
00000380: 19a8 c8bc 09b1 1fbd 019b 56bc 76a6 d3bb
00000390: 99bc 9fbd 7111 acbb e715 e5bc f14c 6b3a
000003a0: 3cb4 163b 7f8b bf3c 025d 683c 5489 073d
000003b0: 9757 093d 5030 023d 23c8 963c c6f8 e33c
000003c0: e7f9 1bbd e484 dfbc d659 eb3b 381d 10bd
000003d0: 845d fabc 7088 763c c9c2 643c 6d97 52bd
000003e0: 9b01 1cbd d80f 8d3c 89ae 18bb 769e 77bc
000003f0: 94f5 713c edc2 26bc 83c3 9d3c f13d 8c3b
-0.046502233 -0.025528986 0.036493417 -0.023930874 -0.058124863 -0.0016648063 0.012668871 0.024994507
-0.027665755 0.057933737 0.005112042 -0.050882902 0.045490053 -0.039348364 -0.019236129 -0.017235868
0.02170941 0.02374511 0.016364647 0.0005616918 0.04779051 -0.016306503 0.024701644 0.015448663
0.03553782 -0.0056481613 -0.01159258 0.051508762 0.011463282 -0.033822328 -0.0112853255 0.040133715
-0.01431798 0.0064491024 -0.0056172814 0.029609967 -0.03268348 0.0011423655 -0.009645925 -0.04937142
0.05616205 -0.06740108 -0.017829856 -0.04545932 0.042492542 -0.008262109 0.053874027 -0.022511857
-0.0059737265 -0.037380118 -0.010958373 0.015862769 0.061992094 0.023780376 -0.0070421244 -0.020702643
-0.092034124 0.042732075 -0.008298807 -0.04652266 0.028155664 -0.008499947 0.03344125 -0.0057539255
0.020308906 -0.004770602 0.015606444 0.0053755934 0.0039712354 0.027991252 -0.008998668 -0.02178362
0.000439881 -0.053381544 0.0078090816 0.021714306 0.00022025645 0.0039006663 0.010230125 0.025035305
0.036878236 -0.01690394 0.0033303085 -0.051426165 0.004672248 -0.03531339 0.018811706 0.05911804
-0.05758909 0.042355064 -0.004499749 -0.06179265 0.008617507 -2.6978641e-06 -0.022535749 -0.03945995
-0.07821501 0.0025106017 -0.03511723 0.01924366 -0.0049177725 -0.02791456 0.0037792556 -0.0039695683
-0.047855157 -0.019594794 -0.0111278305 0.030859686 -0.0010634529 0.013303648 -0.03788505 0.027858919
-0.014669595 -0.070193455 0.037284344 -0.060661316 -0.013250764 -0.023900738 -0.010684568 0.05050208
0.015970385 -0.041785505 0.030074537 -0.016359745 -0.010382625 -0.022379229 -0.005978023 -0.026255185
0.011136924 -0.043680802 -0.029353313 -0.023993816 0.0005352591 0.0032603394 0.0072533535 -0.04400184
-0.032823805 0.019616356 0.015519885 -0.0041823643 -0.0035628106 -0.026629437 -0.03433876 -0.023641042
-0.012171008 -0.004474845 -0.023317987 -0.000104128616 0.089092754 0.047566105 -0.023947377 -0.044463065
-0.0049347556 0.02910217 0.026612107 -0.00019191725 0.0053913333 -0.02425027 0.003971068 -0.040987134
-0.006541128 -0.02150101 -0.066499315 -0.05951716 -0.01586236 -0.012298223 -0.0105490815 0.012248558
0.04742866 0.028561192 -0.0037400192 -0.029944884 -0.03485599 0.00619496 -0.026447475 0.002019771
0.04805631 -0.031999093 -2.8485845e-05 0.008574146 0.028440574 0.013204504 -0.015575184 0.003154177
-0.041876357 -0.01898639 -0.0069768154 0.033896226 -0.009359699 -0.030914307 0.016213428 0.03272679
0.038125608 0.016932951 -0.0064797862 -0.017537113 -0.009011461 -0.0002845662 0.053964544 -0.013890937
0.011662378 0.06482861 -0.014585049 -0.018283742 -0.03975299 -0.012248599 -0.041698225 -0.01985466
0.026528627 0.04498707 0.005709101 0.02713644 -0.0029835808 0.036584716 0.029764444 0.019807598
0.041661736 0.033190325 -0.035701957 -0.061711077 0.01836053 -0.019754581 -0.090970226 0.012593413
-0.024494218 -0.038987193 -0.013098479 -0.0064590527 -0.07799644 -0.0052511026 -0.027964545 0.0008976004
0.0022995612 0.023381947 0.014182331 0.03308995 0.033530798 0.031784356 0.01840598 0.027828585
-0.038080122 -0.027285047 0.00718234 -0.035184115 -0.03056217 0.015047178 0.013962456 -0.051413942
-0.03808747 0.017219469 -0.002329739 -0.015113464 0.014768023 -0.01017831 0.019258266 0.004279845

fingerprints_hidden.0.1.bias f4 [125]
00000000: ac7a 8036 7e54 1436 8457 12b6 a7b6 1fb7
00000010: df69 c0b7 31e4 f237 444c a436 b551 4237
00000020: a0a7 cdb4 402d fe34 591f f737 508e 1ab6
00000030: 1286 64b7 5052 b7b5 4c0c b637 784b e335
00000040: 1354 03b6 5a8f 0c38 eaa5 1bb7 9e5d c737
00000050: 3045 ea35 b4cb 68b7 0262 5438 706b dd37
00000060: 541f 6536 d953 b036 0bb4 fd37 0810 7fb6
00000070: 8a86 d236 109e 6138 bbe4 a5b7 39c0 3f38
00000080: 27d2 1eb8 2bbd 5738 0ecd 0538 d23a 39b7
00000090: 8a31 3438 f104 2938 b71a 2237 d8e5 a036
000000a0: 165e f237 0917 c537 8abe 2136 5794 e437
000000b0: 4688 2ab6 4489 c0b6 2199 f836 38cd ffb7
000000c0: d1ac 22b7 5bf9 ceb7 6e8d f3b7 30b9 eeb6
000000d0: 6267 8737 65a3 27b8 b6cb c1b7 6252 dfb7
000000e0: 55b0 b837 099e 0538 ea45 ea37 dc63 b237
000000f0: f893 8c37 96cf a5b6 b5f4 6837 d894 cb33
00000100: ba43 8037 bc56 cfb7 5304 03b8 4900 79b8
00000110: e72f 2937 7014 1537 815c 36b8 b04b fdb5
00000120: 6ae6 0cb7 5281 2938 301c 3d38 7bdd d7b7
00000130: ca55 f437 fbfb ccb7 09e4 b937 6ffc 3e36
00000140: 6348 0338 ed14 1a38 c034 4db5 d4d4 1138
00000150: c8e5 cd37 5da8 67b8 23e1 a9b7 dc5e de36
00000160: 92eb 6038 1c32 7537 fc07 2838 4e12 4538
00000170: 67b9 4637 ae35 4538 f95f 0d37 d859 d1b5
00000180: f58e 8c37 6292 00b8 6829 8737 206d c136
00000190: d096 d636 1a0b c337 2289 2437 985b 2bb7
000001a0: 96fe 27b7 a77a 57b7 f061 31b8 181b 51b8
000001b0: 419b db36 b539 9837 9ac1 21b8 e0d4 a937
000001c0: ddf0 0237 2013 dc37 e271 b3b7 02a9 08b8
000001d0: df92 87b7 07e3 8a37 70d8 9c36 c187 2338
000001e0: a551 f7b7 3c6e e335 a862 2738 ee3c 0eb8
000001f0: 9050 6ab7
3.828978e-06 2.21029e-06 -2.1806636e-06 -9.519666e-06 -2.2937484e-05 2.8954908e-05 4.8964594e-06 1.1582325e-05
-3.830619e-07 4.734411e-07 2.9459292e-05 -2.3030625e-06 -1.3621075e-05 -1.3658519e-06 2.1701817e-05 1.6934782e-06
-1.9569459e-06 3.3512108e-05 -9.27735e-06 2.3766243e-05 1.7454495e-06 -1.3875706e-05 5.0636016e-05 2.6395282e-05
3.4141895e-06 5.25497e-06 3.024379e-05 -3.8007292e-06 6.27415e-06 5.3791387e-05 -1.9776044e-05 4.571697e-05
-3.7865855e-05 5.143617e-05 3.1900643e-05 -1.1040554e-05 4.296148e-05 4.0297342e-05 9.6621725e-06 4.795129e-06
2.889246e-05 2.3494957e-05 2.4101778e-06 2.7248794e-05 -2.5411296e-06 -5.7380257e-06 7.4088025e-06 -3.0493931e-05
-9.696189e-06 -2.4673229e-05 -2.9033716e-05 -7.1145114e-06 1.6141395e-05 -3.9968076e-05 -2.3102253e-05 -2.6622034e-05
2.201662e-05 3.1856853e-05 2.792753e-05 2.1265754e-05 1.6758204e-05 -4.9415494e-06 1.3885253e-05 9.479999e-08
1.5290327e-05 -2.4716712e-05 -3.123686e-05 -5.936649e-05 1.0084338e-05 8.885851e-06 -4.3478332e-05 -1.8871997e-06
-8.398298e-06 4.041318e-05 4.5087363e-05 -2.5733132e-05 2.9127015e-05 -2.4436033e-05 2.2159906e-05 2.8459142e-06
3.130025e-05 3.673595e-05 -7.644521e-07 3.4768906e-05 2.4544905e-05 -5.5231492e-05 -2.0251207e-05 6.6271587e-06
5.3625154e-05 1.4614805e-05 4.0061757e-05 4.6985508e-05 1.1844887e-05 4.7018453e-05 8.4266e-06 -1.5597861e-06
1.675587e-05 -3.0653908e-05 1.6112535e-05 5.764552e-06 6.395254e-06 2.3250981e-05 9.8070905e-06 -1.021372e-05
-1.0013251e-05 -1.2843556e-05 -4.22913e-05 -4.9854716e-05 6.5447825e-06 1.8146684e-05 -3.8565697e-05 2.0245498e-05
7.804684e-06 2.623495e-05 -2.1391494e-05 -3.2582328e-05 -1.6161646e-05 1.65566e-05 4.674359e-06 3.898866e-05
-2.9482713e-05 1.69449e-06 3.9907784e-05 -3.3912183e-05 -1.3966244e-05

fingerprints_hidden.0.2.weight f4 [125]
00000000: 8c2a 823f 1cb5 723f 655f 7a3f e732 753f
00000010: 01e6 7c3f c4cc 6b3f 6578 753f f383 773f
00000020: 2f58 6d3f 6a6a 7e3f 0867 713f 700b 783f
00000030: dfb7 663f e5ac 7b3f 14f5 713f f4b9 753f
00000040: 57ed 803f 70eb 773f 6943 6b3f e58d 713f
00000050: eef7 793f 2933 763f d1d4 663f 794d 813f
00000060: cd8b 823f 41f2 713f 9bae 7b3f 559b 7d3f
00000070: 0c2b 743f be94 7e3f 41f8 703f f0f8 743f
00000080: 9381 683f d0b7 6d3f 36c9 6e3f 844c 6f3f
00000090: 7615 823f 3975 6e3f 52c8 833f 07d7 7c3f
000000a0: f521 803f 1a69 793f 1ded 793f 6218 7b3f
000000b0: c1f8 6f3f fa85 753f 100f 7e3f f6a3 713f
000000c0: dfc6 823f bc5b 743f 8c15 803f c0a8 733f
000000d0: ad0c 703f ef89 723f af7a 7e3f 1115 6c3f
000000e0: 1b32 6a3f 3131 723f 948a 733f ca5a 763f
000000f0: 9e5d 813f 8e2c 7d3f 9c12 793f c3d1 733f
00000100: c457 653f 7359 6c3f 39e9 753f 9976 7e3f
00000110: 9b94 833f 0ea6 753f 4295 823f d6cd 6f3f
00000120: 9d3f 803f da11 803f be88 6f3f a250 6e3f
00000130: 9395 713f ca0f 763f 310d 713f 1b1a 7a3f
00000140: dd81 6c3f fdfa 6f3f 4e89 6d3f 3146 7b3f
00000150: 336d 723f b0ef 7a3f 5d9e 6b3f bcbe 753f
00000160: 58b3 843f b480 803f 99a8 7d3f 097a 813f
00000170: b1c6 713f ef5e 7e3f 4d41 713f 79b3 803f
00000180: 8324 723f 5728 833f ef92 713f 5623 6f3f
00000190: 2a63 753f f205 6f3f e797 813f d2ea 693f
000001a0: eac0 833f c912 6b3f 9942 803f 867e 753f
000001b0: a98f 7c3f 8f7e 723f c40b 6b3f 1ea3 783f
000001c0: c7a1 793f 04f4 813f 3f86 723f c1fe 6f3f
000001d0: 98e5 813f 6257 783f 38cd 7b3f 98a4 743f
000001e0: 6d9a 773f 850d 803f af92 713f 89a3 6d3f
000001f0: 146f 763f
1.0169234 0.948076 0.9780181 0.95780796 0.9878846 0.9210932 0.9588683 0.96685714
0.9271268 0.99381125 0.9429784 0.9689245 0.90124315 0.9831069 0.94514585 0.95986867
1.007243 0.96843624 0.91899735 0.9435714 0.97643936 0.96171814 0.9016848 1.0101768
1.0198914 0.94510275 0.983133 0.9906514 0.95378184 0.9944571 0.94128805 0.9569235
0.90822715 0.928586 0.93275774 0.9347613 1.0162799 0.9314762 1.0295508 0.98765606
1.0010363 0.97426 0.9762743 0.9808408 0.93738943 0.95907557 0.99241734 0.9439081
1.0216941 0.95452476 1.0006576 0.9517937 0.9376934 0.9474172 0.9940595 0.92219645
0.91482705 0.9460631 0.9513333 0.96232283 1.0106695 0.9889611 0.9729402 0.95241946
0.89587045 0.9232399 0.96058995 0.99399716 1.0279726 0.95956504 1.02018 0.93673456
1.0019413 1.0005448 0.93568027 0.93091786 0.9436886 0.9611784 0.94160753 0.97696084
0.92385656 0.9374235 0.92787635 0.9815398 0.94697875 0.98021984 0.9203852 0.9599416
1.0367231 1.0039277 0.99085385 1.0115367 0.94443804 0.9936361 0.94240266 1.0054771
0.9458696 1.0246686 0.9436483 0.93413293 0.9585444 0.93368447 1.0124482 0.9137393
1.0293248 0.9182554 1.0020324 0.95896184 0.9865671 0.94724363 0.9181483 0.971239
0.9751248 1.0152593 0.94736093 0.937481 1.0148191 0.97008336 0.98360014 0.9556365
0.9672001 1.0004126 0.94364446 0.9282766 0.9626324

fingerprints_hidden.0.2.bias f4 [125]
00000000: 6a73 e2bc 8f08 24bd 3b08 d0bc 671f 38bd
00000010: 829c 723b 73b2 28bd 100d e9bc f5b9 95bc
00000020: 7709 06bd 04de f3bc e7d4 20bd cee4 b2bc
00000030: cd7b a7bd e474 edbc 620a 36bd c94f 1dbd
00000040: 6ef7 fdbc cc26 40bd 4ed6 19bd bd5c 54bd
00000050: 2c7c 46bc 9b0f 17bc b54d 8ebd 9955 bbbc
00000060: 720b cbbb 8824 a0bc 1484 57bd 79a1 86bd
00000070: 933c f83c edc9 94bc abb7 d4bc 8577 6fbd
00000080: 868b 28bd 9065 d5bc 4da9 1abd 92a6 89bd
00000090: 264e c73c c9f0 6ebd 20b4 8b3c 3577 21bd
000000a0: c1eb 4d3b c2df 55bc 5e2b 413a 3b5d b9bc
000000b0: dcd9 ecbc a827 05bd 6f5f 48bd 43b6 02bd
000000c0: 4f8d 393a 8de0 48bd 8c22 29bd 5e65 9cbc
000000d0: 8b74 03bd d0ad 82bd e0eb 96bd 138e 0a3b
000000e0: 0ae5 113c 0c92 23bd c4e5 5a3c 6e96 b4ba
000000f0: a69b fabc fda7 59bc 98d4 fcbc a683 d2b9
00000100: 4ff3 81bd fb12 05bd df67 02bc 51de bdbc
00000110: 4a2d 89bd 7c7d 23bd 0aaf dfbb 717a f4bc
00000120: 6819 49bc 431c 29bc a430 c039 c0ff 10bd
00000130: ec17 4dbd 7edb 87bd ad49 26bd f308 e0bc
00000140: 0537 afbc 0eca 29bd 9662 31bd 3205 42bd
00000150: 28bb ddbc c455 54bc 39ed 59bd b3fe 40bd
00000160: 27b6 3fbc 4f89 15bb 0be5 84bb 536c fa3c
00000170: 4ec5 b6bc 94fc 35bd 634e 4abd 2d33 a4bc
00000180: fe17 6cbc 8c6d 403c 9291 6dbc ee05 3cbd
00000190: 2fdf f9bc 54dc cdbc 5471 e13b 60e8 13bd
000001a0: 0ed1 543c 0cbf 5fbd 2cc7 09bd 5260 22bc
000001b0: 29e3 12bd 99bb 55bd 4524 4dbd 1acb 823c
000001c0: 3c56 a0bd 691c 82bb fa4e 80ba 1121 1dbd
000001d0: e80a 2dbc 38a8 48bc 210c 5cbd c14c 0abd
000001e0: 5742 89bd 8e9b 4abd 558b 553d be17 2fbd
000001f0: e2ac 02bd
-0.027642924 -0.040047225 -0.02539455 -0.044951823 0.0037019555 -0.041185807 -0.028448611 -0.018277148
-0.03272387 -0.029768951 -0.03926554 -0.021837618 -0.0817791 -0.028986402 -0.044443496 -0.038406167
-0.031001773 -0.046912 -0.037557893 -0.051846255 -0.012114566 -0.009220029 -0.06948415 -0.022867965
-0.0061964327 -0.01954867 -0.052616194 -0.06573767 0.030302322 -0.018162692 -0.025966486 -0.058463592
-0.041148685 -0.026049405 -0.037759114 -0.06721224 0.024329256 -0.0583351 0.017053664 -0.039420325
0.0031421038 -0.013053836 0.0007368828 -0.022627464 -0.028912477 -0.032508522 -0.048919138 -0.0319121
0.00070782466 -0.049042273 -0.041292712 -0.019091304 -0.032093566 -0.06380808 -0.07369208 0.0021141812
0.008904705 -0.039934203 0.013360444 -0.0013777742 -0.030591797 -0.01328468 -0.030863091 -0.00040152407
-0.063452356 -0.032488804 -0.007959335 -0.023177298 -0.06698091 -0.039914593 -0.006826286 -0.02984354
-0.012274124 -0.0103216795 0.00036657334 -0.035400152 -0.05007164 -0.06633662 -0.040597606 -0.027348017
-0.02138854 -0.04145246 -0.04330691 -0.047368236 -0.027066782 -0.012959901 -0.05320475 -0.0471179
-0.011701143 -0.0022817438 -0.0040556244 0.030569231 -0.02231088 -0.04443033 -0.04939116 -0.020043934
-0.014410017 0.011744868 -0.014500039 -0.045904092 -0.03050193 -0.025129475 0.006879965 -0.036110282
0.012989296 -0.054625556 -0.03363721 -0.00991066 -0.035861168 -0.05218086 -0.050083417 0.015965987
-0.07828948 -0.003970672 -0.0009789162 -0.038361613 -0.010561682 -0.012247138 -0.053722505 -0.033764604
-0.067021064 -0.049464755 0.05213483 -0.04274725 -0.031903155

fingerprints_hidden.0.2.running_mean f4 [125]
00000000: 83af 0fbf 4a3e ccbd d96e 22bd 6b49 30bd
00000010: 59d4 6e3e 1c49 03be a576 6abc 366c bcbd
00000020: 95bc 37be 3f35 323e 8c10 393e 519d a63d
00000030: e9d1 333e 1344 063c f90a 5b3b f1cb 4bbe
00000040: ba26 103e 0d06 a3bd d9b6 a43e 0ebf c53d
00000050: 1919 1e3d 5b39 afbe 7fcf 0e3e d881 c8bc
00000060: d212 0fbe 57ba 44be 64ad d03d f0a8 aabd
00000070: 883a a83e 884e a5bd 7058 a0be a44a 193e
00000080: b4b1 553e ab41 93bd b8dc 29bf 01fc da3e
00000090: 8507 f83d 0619 c6be 4f32 3e3e c689 a6bc
000000a0: d43a 243e 91a0 8c3e de26 073d 0ac4 4a3e
000000b0: 3ae8 c3bd 17ae 673d 1d5d af3d a732 1d3d
000000c0: c100 ffbc 193a 13bf f998 95be a2e7 efbd
000000d0: 93c7 fdbd 73f2 d8be bfe7 973e c4b9 6dbe
000000e0: d63d 6cbe 7d8f bcbe e8b6 7bbe 4a17 84be
000000f0: 7aff 96bd 5afd 89bd 933d 4f3e d275 34be
00000100: 010c ef3d ab7b df3d 9578 e63c 1b1e 32bf
00000110: cecb ffbe c840 473e b35f 1c3e ca52 8abe
00000120: c29a af3e 1eec ef3d 19ab 08be 1bab 97be
00000130: 2450 59be ae41 afbd 6367 c83d ffda df3d
00000140: e5ed 733e fd92 a73e 269c a33c a1e1 50be
00000150: 4aeb 14bd 1753 ca3d 7902 963e da5d 943e
00000160: 8224 413e 9802 6c3e 8676 0e3d c265 bd3e
00000170: 7f36 cf3d e627 413c dd9f 8f3e 14b8 08bf
00000180: 3c45 52be 9d18 95be 886f b3be 1af5 b03d
00000190: 0e84 dbbd 1f59 78be 30ce 913e 0349 9abe
000001a0: 9062 bd3d a45a 9b3d 657a a63e 8ef9 11be
000001b0: 2433 99be 7850 193e 9fdd 80be 38e3 49be
000001c0: 7116 643d 0af7 58be 7a1a dfbd ce03 6a3e
000001d0: 8521 8dbd db79 cbbd 44e5 00be 7390 8b3d
000001e0: ee9e 48be 96b9 f13d bda7 523c b34a 10be
000001f0: eca5 683e
-0.56127185 -0.09972818 -0.039656494 -0.043038767 0.23323192 -0.12820858 -0.014310514 -0.09200327
-0.17943032 0.17403124 0.18072718 0.081354745 0.17560543 0.008194941 0.0033423288 -0.19902016
0.14077273 -0.079601385 0.32170752 0.096555814 0.038598154 -0.34223446 0.13946341 -0.024475977
-0.13972023 -0.19211708 0.10189322 -0.083330035 0.32857156 -0.08071619 -0.31317472 0.1496988
0.2086857 -0.071902595 -0.66352415 0.4277039 0.12110809 -0.38690966 0.18573879 -0.020329367
0.16038066 0.27466252 0.03299605 0.19801345 -0.09565778 0.05656251 0.08562682 0.038378384
-0.03112829 -0.57510525 -0.2921827 -0.11714102 -0.123915814 -0.42372474 0.29668996 -0.23215395
-0.23070464 -0.36828223 -0.24581492 -0.25799018 -0.07372947 -0.06737776 0.20238332 -0.1762307
0.116722114 0.1091226 0.02813367 -0.6957719 -0.49960178 0.19458306 0.15270881 -0.27016288
0.34297758 0.11714958 -0.13346519 -0.2962273 -0.21221977 -0.08557449 0.097853445 0.10930442
0.23821218 0.3272933 0.019971918 -0.2039857 -0.0363572 0.098791294 0.2929876 0.28977853
0.18861583 0.23047864 0.034781 0.36991698 0.10117816 0.011789298 0.28051654 -0.5340588
-0.20534223 -0.2912034 -0.3504603 0.086404994 -0.10718547 -0.24252747 0.2847762 -0.3013383
0.09247315 0.07585648 0.32515255 -0.14255354 -0.2992183 0.14972103 -0.25169083 -0.19715583
0.055685464 -0.21187988 -0.10893722 0.22853014 -0.06891159 -0.099353515 -0.12587458 0.06814661
-0.19591877 0.11802976 0.012857375 -0.14090995 0.22719544

fingerprints_hidden.0.2.running_var f4 [125]
00000000: b8f6 e33d f2ce 013e 444a 0b3e 4eb8 d83d
00000010: 8fda 043e f8aa ef3d ac80 ce3d 172d 003e
00000020: fe2b f53d 8bf0 e43d 2291 193e 7860 d23d
00000030: 0989 f93d dda0 db3d bd38 fa3d 8c3c f93d
00000040: 1dff c63d 92c8 f53d 29e4 2f3e ce25 cc3d
00000050: d1b9 d43d a6e2 153e a669 0d3e f09e db3d
00000060: 8769 d23d 983a e43d cbc8 ef3d deb0 be3d
00000070: 30c6 033e 795a ff3d 01a5 ea3d 9f2e e93d
00000080: ea27 f93d a749 0c3e 340f 133e 8ab6 143e
00000090: d2b3 d83d 9039 cf3d a568 143e 3685 ec3d
000000a0: 1d48 df3d d104 013e 7ca7 cf3d 699c c53d
000000b0: 965a 0b3e 7e35 cd3d 5556 143e f075 d93d
000000c0: c58e c03d 6005 0c3e 6836 d83d 264d b03d
000000d0: 4237 d93d e523 013e af39 bf3d dffb 393e
000000e0: d484 933e 3f7b 043e 573c 123e c102 1c3e
000000f0: c89e 133e b2e0 fb3d 0ec4 013e 9ac9 e63d
00000100: c14c ef3d 015e c73d 723f f13d e25c f13d
00000110: 66d6 e23d 1539 c23d e644 fd3d 9c7f f33d
00000120: 3bf5 003e f5d2 ac3d 8b28 eb3d 7b56 213e
00000130: f330 093e 3eda 0c3e 9c12 fe3d 69bb 003e
00000140: 3ea6 f43d d189 513e c5fb e23d e5db af3d
00000150: 4876 113e 6931 273e 4db0 af3d 5d85 e73d
00000160: 2c58 003e 6922 d33d bddf de3d bc94 0e3e
00000170: d40b db3d 455a cc3d c0b2 ba3d 2042 d83d
00000180: a537 0d3e 2f50 ec3d b1f0 d43d d753 da3d
00000190: 7522 bf3d 03a7 dc3d 43fc 083e 25ee 0c3e
000001a0: 6771 233e 1820 f23d f496 033e f550 0c3e
000001b0: ba9f f53d 760e cc3d e594 133e 793b 093e
000001c0: d80e be3d 3cbe 163e c611 b83d 9f05 063e
000001d0: a9a4 d03d 1c77 ee3d f64f 313e aa5d 063e
000001e0: 2910 a43d a682 dd3d 41e5 d83d 61c0 f73d
000001f0: c915 da3d
0.11131042 0.126766 0.13602549 0.10582028 0.12973998 0.117025316 0.10083136 0.125172
0.119712815 0.111786924 0.1499677 0.10272306 0.121843405 0.107240416 0.12217853 0.121697515
0.09716628 0.120011464 0.1717688 0.09968148 0.10387004 0.14637241 0.13809833 0.10723674
0.10274034 0.11143988 0.1170822 0.093110785 0.12868571 0.12468428 0.11457253 0.113858454
0.12165816 0.13699971 0.14361268 0.14522758 0.10581173 0.10118401 0.14493044 0.115488455
0.109024264 0.12599494 0.10139367 0.096489735 0.13608775 0.100199685 0.14486058 0.10618198
0.09402231 0.13673925 0.10557252 0.08608465 0.10606243 0.12611349 0.09337174 0.18162487
0.28812277 0.1293764 0.1428083 0.15235426 0.14416039 0.122987166 0.12672445 0.11268921
0.116845615 0.09734727 0.11779679 0.11785294 0.110760495 0.09483544 0.12366657 0.11889574
0.12593548 0.08438674 0.11482342 0.15755646 0.13397579 0.13755128 0.12405893 0.12571491
0.11945771 0.20462729 0.110831775 0.085868634 0.14205277 0.16327442 0.085785486 0.11304734
0.12533635 0.103092976 0.108825184 0.13923925 0.106956154 0.09978155 0.09116125 0.10559487
0.13790758 0.11538731 0.10397471 0.106605224 0.09332744 0.107740425 0.1337748 0.1376272
0.15961228 0.11822528 0.12850553 0.13702758 0.11993356 0.09963696 0.14412268 0.13401593
0.09280175 0.14721006 0.08987765 0.13088082 0.101876564 0.11643812 0.17315659 0.13121668
0.08010895 0.10815935 0.10590602 0.1209724 0.106486864

fingerprints_hidden.1.1.weight f4 [125, 125]
00000000: dda6 f53d 6c6b 43bd 7b69 ac3d ed32 22bd
00000010: f013 673d 0bfe 913c ffc0 e03c 2a6f 99bd
00000020: 41f1 d23c 668d 19bd a55e 0bbd afb7 a6bc
00000030: 873a 17bd 018b a2bc 4fdc e03b 09b7 753d
00000040: f748 d43d 5901 353d 023c d3bd c900 7b3c
00000050: 3e8f 23bc 687d 8a3d 7d34 ec3c f5b2 8e3d
00000060: f2dd d53c 570d f53c e3a6 73bd aab9 583c
00000070: 14e7 c03d b9bd a63c ed34 1fbb 0fcb b33d
00000080: ca96 d03c 6344 e43a ee35 86bd 2238 703d
00000090: 442b b63c c8a8 7dbc f737 f5bd c811 c2bd
000000a0: af12 cf3c 28be b33c 4742 49bd e797 823d
000000b0: 05c7 9dbd 1da3 2b3c b0dc 81bd 864b b6bc
000000c0: 3fa6 67bb 238b 52bd 0002 043e b734 3f3d
000000d0: 2939 70bd 2044 88bd fd54 a2bd 730d 8e3d
000000e0: 45a0 08be be3c 293c 1698 7d3b 895c 61bd
000000f0: 5734 2dbd d1b2 cd3d 5ffa 01bd edd4 343d
00000100: c3a8 73bd f7dc 98ba beb4 943c a2d6 803d
00000110: 98f0 fc3d 7886 96bc c8eb 2a3d f802 ed3d
00000120: 9c56 94bc d85b 99bd d479 49bd 6105 173d
00000130: b75a 8b3d bea5 503d dc41 963d be44 75bc
00000140: 8adb fbbc 7139 07bd f2e8 2a3c fa70 d73d
00000150: 6060 123d 9256 a53d 270b 3dbd 2900 1bbd
00000160: 96d3 42bc 765c 453d a0ce 73bc 6590 443d
00000170: 5e57 983d dfa9 d33a e5e7 963a 24d4 ef3d
00000180: b613 323d e0d4 dabb 3fe7 a2bc 5c41 ca3d
00000190: 05b9 dfbc 3bf5 89bd 44aa 45bd a58d 773d
000001a0: 84ad cabd 4631 9cbd 3632 b4bc 1ed3 413d
000001b0: eaac c73b 4d61 513d 4142 2d3d 6af5 61bd
000001c0: fb8d edbd e384 dabc d58e 9b3d 17bd b43d
000001d0: c4e1 b83d 8e1d 123c aa7b b0bd caf8 9cbd
000001e0: a872 a439 7997 4fbd 18f9 9f3c 097c 60bb
000001f0: cccf 61bc a5ee 94bc ac92 b7bd 1321 d23c
00000200: e6dc ca3d 4b75 e43c e851 57bd 382d 92bc
00000210: 8ad8 7abc e45f 883d 0ec6 813d 4ec6 843d
00000220: e23d 58bc f940 a03d baaf 98bd 884e 6ebd
00000230: 2b9e bdbb d87f 433d 3473 9e3d 345b 943d
00000240: 7f9d b33d 2af0 6ebd 8dbd 53bd 2473 083d
00000250: 022d 5fbc b906 c5bd 0dd8 6dbb a46f 17bd
00000260: b27b e8bc bb40 1bbd 4e91 3abd dc6c 01bd
00000270: ea16 39bd e180 273d 9fd0 7b3d 135a 63bd
00000280: 764e 0cbd 6e4e b3bd d150 e63b 73eb 6fbc
00000290: 90c8 993c 871a be3d a6ed c53d 563e 623c
000002a0: b15b 17bd db73 863d 693e babb dd50 aa3d
000002b0: 1242 95bc 1c33 99bd 36ff 703d 7484 803d
000002c0: f86f 5f3d 0f83 2fbd b1f1 3c3d ee9b 4abd
000002d0: 75bf 203d 4ecc 32bc 75e7 99bd f021 863c
000002e0: 5afc 77bd 3907 533d f906 533d afa1 c13d
000002f0: c496 f23c 1b82 66bd 1679 b93d 754d acbd
00000300: 8811 463d 527e 963d b009 99bd e0c5 2dbd
00000310: 4654 9ebc c877 6a3c 5f10 00be c69d c5bc
00000320: d8ab fd3c 0d48 5dbd c18b f63d 7f1a 79bb
00000330: 9479 eabc 5e49 59bd 2fa9 793c 4404 9d3d
00000340: 5376 c7bc 6483 89bd 0b63 323c d2e0 7ebd
00000350: 4acb 1bbd 7e31 78bd a49e 0abe 912f 99bc
00000360: b4c4 bd3d 58fe 503c 0f6f 10bd be68 2f3c
00000370: 5812 27bc 3452 cbbc 85b3 50bd 46ad fbbc
00000380: 97ad cf3d 0bed bebd 30e6 e9ba ce3c 81bd
00000390: 6d6e 9f3d 4ddd 893d 0c24 56bd 463b 58bb
000003a0: 87f6 e43a cd61 b2bd 3c38 a63d b821 c43c
000003b0: 17a4 a2bd 4062 b43d 4813 b03c 6e55 453c
000003c0: c3d9 ae3c 17ea c63c 9660 b2bc 09ff 3d3b
000003d0: 7e7b 453d 701d 5c3c aca0 173d d1fb cc3c
000003e0: 10ff 973b 6702 c33c dec4 f8bd 4d08 38bd
000003f0: ac03 343d 8089 24bd 425c 7f3d 66e4 2a3d
0.11994717 -0.047709867 0.08418556 -0.039599348 0.0564155 0.017821332 0.027435778 -0.07491906
0.025749804 -0.037488364 -0.034025807 -0.020351259 -0.03692105 -0.019841673 0.0068622003 0.05998901
0.103654794 0.04419074 -0.1031418 0.015320011 -0.009982882 0.067622006 0.028833622 0.06967727
0.026106808 0.029913587 -0.059485327 0.0132278595 0.09419075 0.020354139 -0.002429302 0.08778965
0.025462527 0.00174154 -0.06553255 0.058647282 0.022237428 -0.015482135 -0.11973565 -0.09476048
0.025277464 0.02194126 -0.049135473 0.06376629 -0.077039756 0.010475901 -0.06340921 -0.02225281
-0.0035346893 -0.051402222 0.12891388 0.046681132 -0.058648262 -0.06653619 -0.079263665 0.06936159
-0.13342388 0.0103294235 0.0038695387 -0.05501989 -0.042286243 0.10043872 -0.031732913 0.044148374
-0.059487116 -0.0011662532 0.01815259 0.06290938 0.12350577 -0.018374667 0.041728765 0.11572832
-0.018107705 -0.07488221 -0.04918845 0.036870364 0.06804412 0.050939314 0.073367804 -0.014970003
-0.030744333 -0.033013765 0.010431515 0.105195954 0.03573644 0.080731526 -0.046153214 -0.03784195
-0.011891266 0.04818388 -0.014880806 0.047989268 0.07438539 0.0016148648 0.0011513202 0.117103845
0.04347583 -0.0066782087 -0.019885657 0.098757476 -0.027309904 -0.06736227 -0.04825808 0.060437817
-0.09896377 -0.07626586 -0.021996599 0.047320478 0.006093611 0.051118184 0.042299513 -0.055165686
-0.11599346 -0.026674693 0.075956024 0.088251285 0.090274364 0.008918179 -0.08617337 -0.0766464
0.00031365943 -0.050681565 0.019527957 -0.0034253618 -0.013782453 -0.0181802 -0.08963522 0.025650537
0.09905414 0.02788796 -0.052568346 -0.017843828 -0.015310416 0.06658915 0.06336604 0.06483136
-0.013198348 0.078248926 -0.07455392 -0.058180362 -0.0057866774 0.047729343 0.07736817 0.07243958
0.08770274 -0.058334507 -0.05169444 0.03331293 -0.013621571 -0.09620423 -0.0036292106 -0.036971703
-0.028379295 -0.03790353 -0.04554873 -0.031597957 -0.04518787 0.040894393 0.061478253 -0.055505823
-0.034254514 -0.08755194 0.007028677 -0.014643538 0.018772393 0.092824034 0.096644685 0.013808807
-0.036952678 0.065650664 -0.0056837094 0.08316205 -0.018219981 -0.074804515 0.058837138 0.062752634
0.05455014 -0.042849597 0.046128932 -0.049465112 0.039245088 -0.010912968 -0.0751485 0.016373605
-0.060543396 0.05152056 0.05152032 0.09454667 0.029612906 -0.056276422 0.090562984 -0.08413211
0.048356563 0.073483124 -0.07472551 -0.042425036 -0.019327294 0.014310785 -0.12506245 -0.024123084
0.03096573 -0.05402379 0.12038375 -0.0038010178 -0.028622426 -0.053048484 0.01523809 0.07666829
-0.024348414 -0.06714514 0.0108878715 -0.062226124 -0.03803567 -0.060594074 -0.13537079 -0.01869944
0.09266034 0.012755953 -0.035262164 0.010706125 -0.010197245 -0.024819471 -0.050952453 -0.030722272
0.101405315 -0.09322556 -0.001784509 -0.06310426 0.07784734 0.06731663 -0.05228047 -0.0032994314
0.001746849 -0.0871006 0.081161946 0.02394186 -0.07941454 0.08807802 0.021493569 0.012044294
0.021344071 0.024281545 -0.021774571 0.0028991124 0.048213474 0.013434753 0.037018463 0.02502242
0.00463856 0.023804856 -0.121469244 -0.04492979 0.043948814 -0.040170193 0.062343843 0.041721724

fingerprints_hidden.1.1.bias f4 [125]
00000000: 4008 6c36 0f59 58b8 14dc 0a39 a888 79b8
00000010: 1078 5838 4c28 fc36 9dd3 b538 5138 6cb8
00000020: dd79 2539 e7d0 d4b7 fce7 98b6 eb28 6e39
00000030: 7abc 0539 3261 42b9 abc0 11b9 20cb 4c37
00000040: 8a63 f338 58a7 0235 f4f0 de38 2065 21b7
00000050: 6e01 fcb8 6331 bf38 38b4 7137 fb15 9637
00000060: 567c 00b8 71c9 d937 e745 c637 0893 b4b8
00000070: 008c c738 6f88 01b9 c4dd 97b5 36fb 1ab9
00000080: a31b 89b8 0eab 92b8 1ef0 2bb6 c8bf d637
00000090: 4178 8738 fead d0b7 79e9 2438 1781 5639
000000a0: 6b9d 5db9 afd8 5bb8 b9b6 1037 10c0 8d37
000000b0: f5fa 4338 f950 0c39 006c 8838 3d7f 4839
000000c0: 9435 2db9 eafd 18b9 ef7b b2b7 b4ef ce37
000000d0: c8c2 54b9 fc13 9638 e098 9ab8 4cfa 8c36
000000e0: 7595 5338 00bf 5237 2827 f637 e6bf a638
000000f0: 603f a238 4dbf 53b8 56cf 9eb7 399c 81b6
00000100: 7ffe 75b8 4017 3538 9c73 5e38 6799 d3b8
00000110: 3d26 d0b7 4089 bb37 8f04 b1b7 8120 7338
00000120: d03b 96b8 3d5d 2d39 ff06 1bb9 9807 63b6
00000130: 6ad0 5bb7 5705 02b7 9a80 48b7 abd4 09b9
00000140: b88a e938 df10 02b7 5c23 ceb7 d0fd 9d38
00000150: c9d0 8eb8 9650 99b7 ecbb 8838 851e a7b8
00000160: e9ce 1339 0c7b beb7 60f9 3eb5 8b24 06b8
00000170: e62a c6b7 97bd 9ab8 d885 53b9 0877 12b8
00000180: 5e03 6839 37b6 c7b8 ec5f 4eb8 d46a 1a39
00000190: fec1 31b8 5661 43b7 2585 16b9 f537 3db8
000001a0: 3b00 c238 cddc f837 04a2 2f38 e87d 68b8
000001b0: 9d50 f338 ae12 8d38 52a0 13b8 1173 0539
000001c0: d7ac 84b8 1227 bf37 77d1 8137 f22c 1538
000001d0: 9762 3938 18b4 ffb7 b6c3 16b8 b870 5136
000001e0: ae39 1ab8 3ef6 0137 2c7a 29b7 b601 1439
000001f0: e427 1438
3.5171543e-06 -5.1581355e-05 0.00013242691 -5.9493497e-05 5.161023e-05 7.5148764e-06 8.6701686e-05 -5.6319233e-05
0.00015781024 -2.5369647e-05 -4.5569595e-06 0.00022712692 0.00012754081 -0.0001853749 -0.00013900052 1.2206641e-05
0.000116056835 4.867229e-07 0.00010630666 -9.619893e-06 -0.00012016563 9.116789e-05 1.440668e-05 1.7891629e-05
-3.0633375e-05 2.596222e-05 2.363599e-05 -8.6104556e-05 9.5151365e-05 -0.00012353224 -1.1314919e-06 -0.00014780168
-6.537817e-05 -6.993684e-05 -2.5620752e-06 2.5600093e-05 6.459701e-05 -2.4876554e-05 3.9318085e-05 0.0002045672
-0.00021134845 -5.241547e-05 8.625612e-06 1.6897946e-05 4.6725345e-05 0.00013381605 6.505102e-05 0.00019120886
-0.00016518525 -0.0001459044 -2.1276965e-05 2.4668734e-05 -0.00020290457 7.15628e-05 -7.3717674e-05 4.2014635e-06
5.0445513e-05 1.2561446e-05 2.9343719e-05 7.951241e-05 7.7365665e-05 -5.0484483e-05 -1.8931616e-05 -3.8626863e-06
-5.864957e-05 4.3175416e-05 5.3036594e-05 -0.000100898375 -2.4813338e-05 2.235605e-05 -2.1102167e-05 5.7965986e-05
-7.163698e-05 0.000165333 -0.00014784558 -3.3830056e-06 -1.3101942e-05 -7.749847e-06 -1.1950871e-05 -0.00013144563
0.00011136144 -7.752532e-06 -2.457358e-05 7.53362e-05 -6.809977e-05 -1.8276547e-05 6.5199885e-05 -7.968865e-05
0.00014096092 -2.2707063e-05 -7.1143404e-07 -3.1982123e-05 -2.3623415e-05 -7.378606e-05 -0.00020172389 -3.491997e-05
0.00022126499 -9.5229996e-05 -4.920356e-05 0.00014726381 -4.2380758e-05 -1.16455685e-05 -0.00014354715 -4.5113225e-05
9.250684e-05 2.9666722e-05 4.187414e-05 -5.543037e-05 0.00011602158 6.726883e-05 -3.519684e-05 0.00012726734
-6.3264444e-05 2.2787168e-05 1.5475538e-05 3.5566227e-05 4.4199256e-05 -3.0482232e-05 -3.5945057e-05 3.1209038e-06
-3.677018e-05 7.746332e-06 -1.010163e-05 0.00014115017 3.53231e-05

fingerprints_hidden.1.2.weight f4 [125]
00000000: 09f7 6a3f 5bd7 723f f97d 663f dcd8 6d3f
00000010: 641a 6e3f c638 6c3f a1bb 713f 85ae 6e3f
00000020: 2491 793f 622d 803f 8735 823f a060 6c3f
00000030: b4df 6f3f 3158 7d3f f419 713f 8f70 6e3f
00000040: 49e9 6b3f d330 6a3f da0e 743f f137 703f
00000050: 363d 7f3f 1fd9 713f a73c 723f 1041 6c3f
00000060: c2ea 6e3f d1c6 7c3f 0a9e 803f dd7b 803f
00000070: 8d68 6b3f d1e2 7e3f 30a6 7e3f addf 6c3f
00000080: b908 673f 77a7 773f 1f6c 763f ce29 763f
00000090: 8c94 813f 75b3 653f ce9f 783f 7480 803f
000000a0: cf91 803f d384 803f e3e8 763f 926a 833f
000000b0: e859 6a3f 6193 723f d3e2 663f 950f 6a3f
000000c0: f1e4 7e3f cee4 693f 4fad 803f fadb 763f
000000d0: 62ed 663f 5376 6f3f 533f 6a3f 9581 693f
000000e0: a413 6f3f e0c3 823f 2ec7 733f bcdb 6b3f
000000f0: 0401 793f 1831 753f 463c 5f3f a4ab 703f
00000100: b41a 6d3f 0809 803f f0be 793f 0e54 6c3f
00000110: a156 803f b93c 723f 1959 7d3f 0ae5 6f3f
00000120: 2a50 803f c693 723f b201 6e3f f85f 6e3f
00000130: ce0a 7d3f b5f1 813f 0874 703f 1e99 7c3f
00000140: aa0e 763f 3702 743f 953b 713f 67a0 733f
00000150: 03d2 743f 72c0 723f 5682 763f f559 6d3f
00000160: 3133 723f b2b2 753f c71b 713f cbc1 723f
00000170: 8d6c 6b3f 78d0 613f 08dc 813f 7643 733f
00000180: a9cb 683f ad28 7b3f 072e 7d3f 009e 713f
00000190: c53a 763f df0c 7b3f d130 823f 9e37 833f
000001a0: 2b59 7e3f 0a38 7e3f b911 813f 9ee7 673f
000001b0: 6aed 763f cf16 793f 6661 763f c0c8 753f
000001c0: a4b3 743f bdee 673f e0d0 743f 3a8c 733f
000001d0: 4cba 793f 7327 7e3f 9572 7d3f b78a 783f
000001e0: f9b4 703f 8f2a 673f 50a3 703f da6f 603f
000001f0: affb 773f
0.91783196 0.94859856 0.9003597 0.92909026 0.9300902 0.9227413 0.94426924 0.93235046
0.9748709 1.001385 1.0172585 0.9233494 0.9370072 0.98962694 0.94180226 0.931405
0.9215284 0.9148075 0.9533516 0.9383536 0.99702775 0.94471925 0.946238 0.9228678
0.9332696 0.9874087 1.004823 1.00378 0.91956407 0.99564844 0.9947233 0.925288
0.90247685 0.96739906 0.9625873 0.9615754 1.0123458 0.89726955 0.9711884 1.0039201
1.0044497 1.0040535 0.96449107 1.0266898 0.91543436 0.9475613 0.90189856 0.91430026
0.99568087 0.91364753 1.005289 0.9642941 0.9020597 0.93539923 0.91502875 0.9121335
0.93389344 1.0216026 0.952258 0.92132163 0.97267175 0.95778036 0.87201345 0.940119
0.9261887 1.0002756 0.9755697 0.9231576 1.0026437 0.94623905 0.9896408 0.9370886
1.0024464 0.94756734 0.92971337 0.93115187 0.9884461 1.0151888 0.9392705 0.9867114
0.96116126 0.9531588 0.9423154 0.9516663 0.9563295 0.948249 0.96292627 0.9271539
0.9460936 0.9597579 0.9418301 0.94826955 0.9196251 0.88208723 1.0145273 0.9502481
0.9093576 0.9810894 0.9889836 0.94381714 0.96183425 0.98066515 1.0171148 1.0251348
0.9935481 0.9930426 1.0083534 0.90587795 0.96456015 0.9730043 0.9624237 0.96009445
0.9558661 0.9059866 0.9563122 0.95135844 0.9754989 0.99278945 0.99002963 0.9708666
0.9402614 0.90299314 0.93999195 0.8767067 0.96868414

fingerprints_hidden.1.2.bias f4 [125]
00000000: 17f5 8fbd a70f 06bd f8ba 2ebd 639e a3bc
00000010: a6a1 b83c 0008 ddbc 3403 f03c 8743 06bd
00000020: 6f91 9abc b5ba ef3b 66c9 82bb 96e3 2bbd
00000030: 9f28 0dbc 93b1 73bb db93 c6bb e06d 65bc
00000040: d041 c8bc 2395 2abc 66a7 55bd 44f8 aebc
00000050: e5e9 053d f387 2c3d da9d 2abd 318d 37bd
00000060: c077 6dbc 9a57 eebc 25e9 de3c 8c55 0fbc
00000070: 3d1b bebc 5410 30bd 72bf 5bbb 3f42 37bc
00000080: 7618 64bd 1010 e4ba 477a b8bb 107e 323d
00000090: ed88 5d3c c771 9cbc 6424 89bb 84f0 5bbc
000000a0: 96fe 2c3c 39d1 07bc 8e89 40bd 760e d83c
000000b0: 214c 67bd 1421 89bc 2f95 2cbd 614e 01bd
000000c0: 4827 c23a 478e 863b 2f03 d43c 9c31 41bc
000000d0: 132d 71bd 8eb3 f1bc 61da e4bc f44a 8bbd
000000e0: 8b4a 4d3c ca2e 863c bc91 c3bc f87b 10bd
000000f0: aa0a 3cbd e379 283b 8e90 e4bd 918e a23c
00000100: 498f edbc e808 b8bc 0117 1cbc c384 50bd
00000110: 3cda 6c3c 3766 94bc 161c d03b a540 e4bc
00000120: 80b4 903d d92a 03bd 725d 2bbc 900d 61bd
00000130: 0930 8d3c fa6d 51bc fb4b 1f3d fcff 143d
00000140: ff58 30bc 5b08 eebc af95 95bd 3327 8bbc
00000150: 8355 81bc 68d9 d0b8 99fe 7b3c 0d88 04bd
00000160: d0af 9d3b a942 163d 4531 0abd b9ef 3abd
00000170: 60a1 1ebd 4340 5bbd 5a97 37bd 17ce d6bc
00000180: e87d 1f3c 368d 593d d31f ccbc e1aa b0bc
00000190: f1c1 71bb ce92 7ebc 9b62 813c 2e5d b33c
000001a0: a79a 893c 6612 c13c 2b8f 1cbd 81c9 0ebc
000001b0: 0944 cfbb daec 393b 244b 563a a533 293a
000001c0: e55b ebbc 2f13 4bbd 1f2d dabc ecfc ea3a
000001d0: 3c60 983c dd66 a4bc 422e 843c d452 0cbd
000001e0: b55d 32bd ae3d d2bc d128 ac3b 485c 4ebd
000001f0: 90ae 573c
-0.07029169 -0.03272977 -0.042658776 -0.019972986 0.022538017 -0.026981354 0.029298402 -0.032779243
-0.018868176 0.0073159584 -0.0039912937 -0.04196509 -0.008615642 -0.00371847 -0.006060106 -0.014003247
-0.024445444 -0.0104115335 -0.052161597 -0.021358617 0.032693762 0.04212184 -0.041654445 -0.044812385
-0.014493883 -0.029094506 0.027210781 -0.008748423 -0.023206348 -0.04298432 -0.0033530858 -0.011185228
-0.05568739 -0.0017399807 -0.005629811 0.043577254 0.013521415 -0.019097222 -0.0041852463 -0.013424043
0.010558745 -0.008289629 -0.047006182 0.026374083 -0.056469087 -0.016739406 -0.04213446 -0.03156889
0.0014812732 0.0041063162 0.025880424 -0.011791613 -0.058880877 -0.029504564 -0.027936162 -0.068014055
0.012529979 0.016379733 -0.023873203 -0.035274476 -0.045908608 0.0025707416 -0.11160384 0.019843372
-0.028998988 -0.022465184 -0.009526969 -0.05090786 0.014456328 -0.018115146 0.0063510044 -0.027862856
0.07065678 -0.032023285 -0.010459291 -0.054944575 0.017234819 -0.012782568 0.03889082 0.03637694
-0.010763406 -0.029056719 -0.073039405 -0.016986465 -0.015787845 -9.958708e-05 0.015380525 -0.03235631
0.0048122182 0.036684666 -0.033738393 -0.045638774 -0.038728118 -0.05352808 -0.044822074 -0.026221318
0.009734608 0.053113185 -0.024917519 -0.021565856 -0.003688928 -0.015537931 0.015794089 0.021895017
0.016797377 0.023568343 -0.038222473 -0.008715034 -0.006325249 0.0028369934 0.0008174649 0.0006454534
-0.028730342 -0.04957884 -0.026632844 0.001792816 0.018600576 -0.02006858 0.016135339 -0.03425868
-0.043546397 -0.025664177 0.005253889 -0.050380975 0.013164178

fingerprints_hidden.1.2.running_mean f4 [125]
00000000: eac7 7c3e da52 743c 21ab 9cbe d1f9 f2bc
00000010: 753e cabd 807c 723e 45a4 66bd cabe 9d3e
00000020: 4284 f13d a53e 05be 74dc 63be 1d22 dbbe
00000030: c1fb 94be d2a2 e13c 52d9 233e 431e a2be
00000040: 0c6a 143e 90a3 46ba 4b07 85bd 72ef c93d
00000050: 2871 bbbe cf31 133e 4fc2 7bbe 406e 4ebd
00000060: 5b5f ac3c e38d cdbe e7aa a1be 9caf c3bb
00000070: 00e6 d93c 1e68 a9bb 6d8a 7dbe 9392 543c
00000080: 9097 69bd 44fc ba3c 8c9d 883d cf42 0d3b
00000090: 9eed 08be 2281 063d 7a0d 983c 703f 04be
000000a0: 7d92 87bd 83e7 27be 21e6 a2bd af9e 7a3d
000000b0: e238 afbe 46e2 a83e dcdc a73e 70fd 2dbc
000000c0: 8ad1 05be fdf9 67be f4ac adbe 84cc e9be
000000d0: 6abf 3fbe c075 11bf a39c 353e f020 d8bd
000000e0: 9ce2 c6bd 5ed5 1e3d a082 373e 6864 773d
000000f0: c845 703e 92ca 0fbe 57f7 853e b484 9a3e
00000100: 050b 8c3e 7d71 52be a3c7 8abd 5932 f5bc
00000110: a923 0fbd 5be4 fbbe 20a8 e9bd a255 073e
00000120: d2d5 44be 0caa 8a3e 5c2d e43e 41a5 ab3d
00000130: ec39 18be fcb5 043e a716 55bd 53c1 ca3d
00000140: dbe6 90be 88ad 0ebe dd74 ca3d 3dc8 86bd
00000150: 149d babe 0ad9 0b3e c4ca 05bf 93f0 003e
00000160: 35ec 5abe ffa3 30be 4a80 23bc 4bce 1cbc
00000170: 4ec4 4e3e 411e 083e f4a0 2e3e 1f09 c4bc
00000180: 41c4 f7be 4db7 7dbd 530d d1be 7eca ac3e
00000190: 5c6e c1bd 4b3b 523d db3a f4bd 51ac 23be
000001a0: ecf1 5fbd 1606 8ebe d39b b5be a964 3c3e
000001b0: 7488 c03e 6760 31be a1cf 813d 0624 023e
000001c0: 79d0 7f3e 1a4e 213e 26f3 49be 5175 a63d
000001d0: e930 283d db6e 973d 2dc5 6bbe 9977 133e
000001e0: 1af4 973d b89b 3abe 11e6 6f3d 7e17 0b3d
000001f0: 66b7 d53e
0.24685636 0.0149123315 -0.3059931 -0.029660137 -0.09875194 0.23680305 -0.056309003 0.30809623
0.11792804 -0.13012178 -0.22252065 -0.42799464 -0.29098323 0.02754346 0.1600087 -0.31663713
0.14493579 -0.00075774733 -0.06495532 0.09860124 -0.3660977 0.14374469 -0.24585842 -0.05039811
0.021041563 -0.40147313 -0.315757 -0.005971862 0.02659893 -0.0051698824 -0.24759836 0.012974399
-0.057029307 0.022825368 0.06670675 0.0021554714 -0.13371894 0.032837994 0.018561114 -0.12914824
-0.06619737 -0.16396908 -0.0795405 0.06118649 -0.34223086 0.32985133 0.3278569 -0.010619506
-0.13068214 -0.22653957 -0.33921015 -0.45663846 -0.18725362 -0.568203 0.17735533 -0.10553157
-0.09711191 0.0387777 0.17920923 0.06039849 0.2346412 -0.14042118 0.26165268 0.3017937
0.27352157 -0.20551105 -0.06776359 -0.029931234 -0.034946118 -0.4919766 -0.114090204 0.1321626
-0.19222191 0.2708286 0.44565856 0.08381129 -0.14865845 0.12960047 -0.052023556 0.09900155
-0.2830113 -0.13933384 0.09885571 -0.06581161 -0.36447966 0.13657013 -0.5226252 0.12591772
-0.21379168 -0.1725006 -0.009979317 -0.009570668 0.20192072 0.13292791 0.17053586 -0.02393013
-0.48391917 -0.061942387 -0.40830478 0.3374824 -0.094448775 0.051326077 -0.11925288 -0.15983702
-0.054674074 -0.27739018 -0.35470447 0.18397774 0.37604105 -0.17321931 0.0633843 0.12709054
0.2498187 0.1575245 -0.1972166 0.08127845 0.04106227 0.07394191 -0.23024435 0.14401092
0.074196056 -0.18223464 0.058569018 0.03395795 0.41741484

fingerprints_hidden.1.2.running_var f4 [125]
00000000: 01ce 913e d1a8 983e a528 8f3e ff58 8e3e
00000010: 7a55 7c3e b96a 5a3e 69b1 863e 3327 b83e
00000020: 370e d23e 99a3 953e 6054 d73e d78e 733e
00000030: e02c 803e 6a49 b33e df38 493e 87d0 913e
00000040: 9961 933e 5c16 813e 39c0 a83e 6f5c 5a3e
00000050: 93fa c93e a52c 7c3e dfea 713e 3d0b 803e
00000060: 3d19 753e de84 bc3e 151f 913e 3075 823e
00000070: cbb9 803e 3709 a23e b4f4 d53e 6e1d 853e
00000080: fd3c 3a3e 7b4e c13e b528 a13e 145f db3e
00000090: eb3a 893e d289 9c3e 50b2 8c3e 306d be3e
000000a0: 075e be3e b2fe a03e b8e7 953e 2fd8 db3e
000000b0: e6ed 953e 0526 3e3e d660 843e 1463 3f3e
000000c0: d496 9c3e 714a ef3e 9de7 a13e dac2 963e
000000d0: e086 833e 6c9f a53e f689 6b3e 2cd4 473e
000000e0: d313 923e d27a 843e 2f6d 623e 3239 a23e
000000f0: 39b7 7f3e ce76 b23e 84b1 643e 2868 833e
00000100: 1bd7 a33e 205d b93e 89de 873e 1780 903e
00000110: 3cd3 9d3e 6bba b03e 03fe 933e c769 703e
00000120: ebc1 f53e acd3 753e e547 8a3e 329d 863e
00000130: a839 7c3e f302 a03e 4601 d23e 26fe ca3e
00000140: 7f2b d63e 79cd 923e 1ddf 533e 989e 8f3e
00000150: 96ea fa3e 1791 8b3e cbb5 753e cf6f 9c3e
00000160: d62e 8e3e 17a0 9a3e e525 a03e 80cd 853e
00000170: 374e aa3e 97e6 603e c849 b63e f70b 823e
00000180: 6541 5e3e 1060 cd3e 00ce 8e3e e28f 003f
00000190: fd1a ab3e ff8e c83e ba67 a93e 6374 b43e
000001a0: 1a2b 8d3e 9ef5 a23e 4bff b03e d325 993e
000001b0: b88e c33e 8b0e fc3e 0939 893e e1aa 393e
000001c0: e9d5 6f3e 7b06 5b3e 20ff 723e 5356 b73e
000001d0: 89db a03e c960 973e ceac 803e 0388 983e
000001e0: bb10 953e ee9f 823e 6005 933e c3b3 753e
000001f0: fa98 8b3e
0.2847748 0.29816297 0.27960697 0.27802274 0.24641982 0.21329774 0.26307228 0.35967407
0.4102647 0.29226378 0.4205656 0.23784958 0.25034237 0.35016948 0.19650601 0.28479406
0.287854 0.2521237 0.32959154 0.21324323 0.39448985 0.24626406 0.23624752 0.25008574
0.23935409 0.3682012 0.28344026 0.25480032 0.2514175 0.31647655 0.41788256 0.25999016
0.18187328 0.37755188 0.3147637 0.42845976 0.26802763 0.305739 0.27479792 0.37192678
0.37181112 0.31444317 0.2927835 0.42938372 0.29283065 0.18569191 0.2585513 0.18690139
0.30583823 0.46736482 0.3162202 0.29445535 0.2568884 0.32348192 0.23001847 0.19514531
0.2853075 0.25874954 0.22111963 0.31684262 0.24972238 0.34856266 0.22333342 0.25665402
0.3200005 0.3620386 0.26536968 0.28222725 0.30825222 0.34517226 0.28904733 0.23477851
0.4799951 0.24006528 0.27007976 0.26291806 0.24631369 0.3125225 0.41016597 0.39647025
0.4183006 0.28672388 0.2069058 0.28050685 0.490071 0.27259132 0.2399513 0.30554053
0.27770108 0.30200264 0.3127891 0.26133347 0.33262798 0.21962963 0.35603166 0.25399753
0.21704634 0.40112352 0.2789154 0.5021955 0.33419028 0.39171597 0.3308695 0.35245046
0.27571946 0.31828016 0.34569773 0.2991167 0.38194823 0.49229845 0.26801327 0.18131591
0.23421444 0.21389191 0.23730135 0.35808048 0.31417492 0.2956603 0.2513184 0.2979127
0.29114327 0.25512642 0.28715038 0.23994355 0.2726515

fingerprints_hidden.2.1.weight f4 [125, 125]
00000000: dbc9 383d 2a95 9cbc d0ba 95bd 303d 723d
00000010: 30b7 9dbd 9352 513c 70b4 8cbd c95b 95bb
00000020: 574d 46bc 2cf3 8c3d 07c0 7fbd 1ba2 a73d
00000030: 0ce5 233c 07ab 93bd ce75 6f3d b8f8 8b3d
00000040: 6227 143d a085 433d d9cc 503c 1eb8 8a3c
00000050: bc2d 803d 88aa 6a3b 6078 a03d d7e7 ac3d
00000060: ec25 3b3d c15a e9bc 6ff3 cc3c 30ae 8dbc
00000070: 112a 0f3d 58f0 c4bd 1bd5 c1ba e7bc 34bd
00000080: ce85 15bd 782d f83d 147f 463d 6276 f7bc
00000090: 63dc 1cbd 68eb 5bbd 0bd8 cebb 2ee1 88bc
000000a0: 5457 4cbc 16ce 943d 448e 55bb bf40 63bd
000000b0: b2b8 5abd ea49 343d e7a3 62bd 0a7f 13bc
000000c0: cd85 0bbd 4a68 46bd bc8c b33c cd8f 1e3c
000000d0: 8964 f5bc 21a3 8c3d bf57 243d fce2 a4ba
000000e0: 20f1 3a3c eba6 7e3d 591e 98bd 0da9 51bd
000000f0: 296c c13d 5a16 60bd 57a1 3abd 900e 8f3d
00000100: 0110 5d3c cd47 97bc 2c99 a73d 9daa 12bd
00000110: da0a b83d 4bf4 a2bd 16b0 f4bd ad62 98bc
00000120: 4c7f e73c 9ff4 4f3d 5c04 eb3c aec7 2fbd
00000130: 316b 79bd bb3a a33d 2db6 b0bb 0458 873c
00000140: 4a86 0ebd 5758 c3bd 964b 403d 5437 b73b
00000150: b983 2f3d 97fe 25bd 8bc2 963d ff0c 41bc
00000160: 99dc b53d cf3c 073d 8add cabc 3a15 ebba
00000170: f9ae 86bd 7bf9 0f3c 33b5 8f3d f4fd 073d
00000180: 8bfc a73d ada9 d2bd 98d0 b73d 1d0d 00bd
00000190: 5cbb 69bd 0d9c 6f3c 60f3 97bd 20e5 223c
000001a0: 9703 b63d 92b6 f23b f5ec fe3c 7188 cd3d
000001b0: b6ef 84bd 48a7 d23c 6214 a0bd 2f9b 813d
000001c0: 762c c83c 3613 37bd 58e7 cebb 4edf a03d
000001d0: 32bc 5a3c 3828 4cbd b776 0c3d 8ee6 03bc
000001e0: 7212 4bbb 7333 fd3c 0a1a 25bd 480d 8a3d
000001f0: 2d49 293c 77df d9bd bf08 973d e218 853c
00000200: 3895 a53c ee44 21bb 0dda 0a3d f365 9e3d
00000210: 550e 21bd 912b 8f3d ac17 833d d4a5 10bd
00000220: f079 8bbd f0e9 c63d fd94 fb3a da2f 4abb
00000230: 05a6 0e3c a8c2 873d 28a1 b4bd 384a 05bc
00000240: cb27 783d 9714 51bd 57b1 ce3d 82c8 1ebd
00000250: 8f8a 68bd 5565 083d a382 e63b ee68 643d
00000260: 28a9 06bd 1cbd d13c 5d9e b93d f052 fa3c
00000270: 1cf0 82bc eef4 653d a186 e03d efc9 b9bd
00000280: c346 7a3c 2bd8 ff3b d0b4 de3b 8478 b23d
00000290: ab0e c93d 66c4 4a3d f51d f6ba 96d2 d9bc
000002a0: 60aa 99bd e64a 653d 120f c43d e0d3 3c3d
000002b0: 4908 2d3d 814a cd3c 84ef 1fbc 0b1a ad3c
000002c0: 260a 96bd 4434 75bd 9ada 3cbd 5d5c 4cbc
000002d0: ad61 74bb e567 8ebd 5618 a43d ee20 59bd
000002e0: 7ad1 7d3d 3942 a33d 1fea 35bd 778f 3f3d
000002f0: 8823 d73a 0a50 283d fc7d 943d 5837 86bd
00000300: 6d6a 283c df40 1e3c f278 7cbd 5518 b2bd
00000310: 52ec 533d a8bc f13a 8e6b 713c 5a1d 46bd
00000320: 7468 b4bd 3688 fbbc 6f41 023e 768d 153d
00000330: fff0 3d3d 4737 eb3c 0228 8abd 3732 983d
00000340: 2c0b a73b 0c2a adbc 294e 0a3d ee41 36bc
00000350: d9a4 803d cb66 a83c e52a a7bc 6490 3cbd
00000360: b48a 323d 2a2c 91bc 2e7e 823b edeb 7d3d
00000370: 4e88 ea3c 1314 9fbc 3283 6cbd 699d f13d
00000380: bd24 4abc a623 e63d af6c 1dbd d4f6 243d
00000390: 374a 6b3c 4c1c 6f3d fd12 65bd 7da7 b3bb
000003a0: fa25 1cbc b9ba 8dbd 0ffc 0dbd 1f7a 74bc
000003b0: 3086 d5bc 26ba cd3d ccc3 813d e253 223d
000003c0: 4f29 873d 665f ebbc 844c 823c 331e b23d
000003d0: b287 92bd 8f81 28bd ddb0 453d 3c58 a7bd
000003e0: b93a aebd 0990 98bd fc20 b2bd 9933 933d
000003f0: e05f 38bb a4c0 ed3d 01aa d1bd 2c79 33bc
0.04511438 -0.019114096 -0.07311022 0.059140384 -0.07700956 0.012776035 -0.06870353 -0.004558061
-0.0121034 0.06882319 -0.06243899 0.08185216 0.0100033395 -0.07210355 0.058461957 0.06834549
0.03617037 0.047734857 0.012744152 0.016933497 0.06258723 0.003580721 0.0783546 0.084426574
0.045690462 -0.028485658 0.025018422 -0.017294973 0.034952227 -0.096161544 -0.0014788242 -0.044125464
-0.03650456 0.121180475 0.048461035 -0.030207817 -0.038296115 -0.053691298 -0.0063123754 -0.016708937
-0.0124719925 0.0726587 -0.0032586018 -0.05548167 -0.053398795 0.044015802 -0.05533209 -0.009002456
-0.03406315 -0.0484393 0.021917693 0.009677839 -0.029955165 0.06867052 0.040122744 -0.0012579854
0.011410028 0.062170904 -0.07427663 -0.05118661 0.09444458 -0.054708816 -0.045564022 0.069851995
0.013492585 -0.018466854 0.08183512 -0.03580724 0.08986445 -0.079567514 -0.11947648 -0.01860174
0.028258942 0.0507704 0.028688602 -0.04291504 -0.06089324 0.07970186 -0.005392811 0.016521461
-0.034796037 -0.09538334 0.046947084 0.0055913124 0.04285023 -0.040526 0.07361325 -0.011782884
0.08879966 0.033016976 -0.024763841 -0.0017935403 -0.06576342 0.008787508 0.07016983 0.033201173
0.082024656 -0.10286269 0.08975333 -0.031262506 -0.057063445 0.014624608 -0.07419467 0.009942323
0.088874035 0.007407018 0.03111885 0.1003579 -0.06491034 0.025714532 -0.07816388 0.06328427
0.024435263 -0.044696055 -0.0063141994 0.07855092 0.013350533 -0.049843043 0.034292903 -0.008050574
-0.0030986336 0.030908322 -0.040308036 0.067408144 0.010332388 -0.10638326 0.07374715 0.016247217
0.020212755 -0.0024607736 0.033899356 0.07734289 -0.03932031 0.069907315 0.064009994 -0.035314396
-0.06810367 0.09712589 0.0019194182 -0.0030851276 0.008706574 0.066289246 -0.088198006 -0.008135371
0.060584825 -0.051045027 0.10092419 -0.038765438 -0.056772765 0.033299763 0.007034616 0.05576413
-0.032876164 0.02560287 0.090634085 0.030557126 -0.015983634 0.056141786 0.109631784 -0.09071719
0.01527566 0.0078077517 0.006796457 0.08714393 0.09817251 0.049503706 -0.0018777238 -0.026589673
-0.075031996 0.05597963 0.09573187 0.046100497 0.04224423 0.02505994 -0.009761695 0.021130582
-0.073261544 -0.059864298 -0.046106912 -0.012473193 -0.0037289665 -0.0695341 0.08012454 -0.05300992
0.06196735 0.07971615 -0.04441273 0.046767678 0.0016413787 0.041091956 0.07250592 -0.06553525
0.01027928 0.009659021 -0.06163878 -0.08696047 0.051739044 0.0018443065 0.014735116 -0.048367836
-0.08808985 -0.030704599 0.12720273 0.03651186 0.04637241 0.028712882 -0.06745912 0.07431453
0.0050977673 -0.021138214 0.033765946 -0.011124117 0.06281442 0.020556828 -0.020406196 -0.04603614
0.04358931 -0.017721254 0.003982327 0.061992574 0.028629448 -0.019418752 -0.057742305 0.11797602
-0.012337861 0.11237268 -0.038433727 0.040274456 0.014360956 0.058376595 -0.05592631 -0.0054826126
-0.009530539 -0.0692038 -0.03466421 -0.014921694 -0.026064962 0.100452706 0.063361734 0.039630778
0.06599676 -0.028732013 0.015905626 0.08697166 -0.07154788 -0.04113918 0.048264373 -0.08171126
-0.08507294 -0.074493475 -0.086976975 0.07187576 -0.0028133318 0.11609009 -0.10237504 -0.010954183
