fold_save/1_141_4_125_2.6_3.95.pth (torch, 789489 bytes, 32 tensors)

fingerprints_hidden.0.1.weight f4 [125, 1024]
-0.007906674 0.034020524 -0.0019936636 0.049944256 -0.01632197 -0.0029387444 0.022794215 -0.022513036
0.0392751 -0.004750745 0.008354068 0.035931107 -0.026124466 -0.034706417 0.02094859 0.020963393
0.0211341 0.005524686 0.012034301 -0.020392502 -0.00031961783 -0.009894962 0.02504671 -0.000971692
-0.013090373 0.040259644 0.00419569 -0.00060696277 -0.037973803 0.01287652 0.01466616 -0.014315899
0.0025196604 -0.010028668 0.03461066 -0.01616602 -0.054812897 0.003290011 0.021499556 0.042281687
-0.0053557977 0.034128066 0.04460224 0.013582821 -0.026298085 0.056854438 -0.051092517 0.016687244
-0.005115652 -0.017466243 0.025784902 0.019421056 0.010964596 0.003993174 -0.00313866 -0.012496872
-0.011809642 -0.018821744 -0.041614313 -0.003636351 0.00024892914 0.028813563 0.04088481 0.052444045
0.030068863 0.044357885 0.02806035 -0.00057646167 0.0063670315 -0.04058752 -0.0043299207 0.039588317
0.028840605 -0.057893164 -0.012644181 0.0035573405 0.038782813 0.03224796 -0.010493578 -0.03121138
-0.0046835854 0.023944596 -0.016514882 -0.016731959 0.02351906 -0.0319201 0.017089114 0.019649427
0.020795096 0.02344354 -0.033432577 0.02216857 0.004448581 0.0112740705 -0.009490754 -0.025732694
0.004845165 -0.03495243 -0.02437349 -0.057065405 -0.011642564 0.031984195 -0.053179648 -0.0013762285
-0.019651933 -0.01649389 0.0154566085 0.033092435 -0.000115642586 -0.015234356 0.006948266 -0.018950658
0.0241149 0.011469307 -0.026146637 -0.045689486 -0.025015114 -0.008904285 0.0127627645 -0.016165527
0.021819213 0.010258511 -0.027885593 0.008771811 0.018515008 0.04269781 -0.008372753 0.016070886
-0.009667612 -0.029714419 -0.04048697 0.016497413 0.027885359 -0.023799727 0.0066862674 0.03208706
0.053326454 0.025117164 0.028197344 -0.011932747 0.017878978 0.0066496697 -0.0080584 -0.05359366
-0.004523712 0.011851123 0.03352374 0.044071324 0.01319331 0.016745832 0.06594383 -0.0075731105
0.03586912 0.027202964 -0.017719597 -0.035043284 0.005773803 -0.0037785745 -0.019368052 0.03982279
0.00957117 0.035184864 -0.014630831 0.014841892 -0.03779988 -0.034892544 -0.0052419743 -0.03730527
0.065698996 0.027732035 -0.00084104214 -0.025830014 -0.0062292153 0.015132829 -0.010386389 0.015184857
0.03418092 -0.011308445 -0.0004257842 0.026046649 0.00798166 0.025318341 0.0075338557 0.015876729
0.040431686 -0.014472456 0.02196076 0.0033791102 -0.009139243 -0.005988857 -0.003438295 -0.023625381
0.05202046 -0.019935213 0.009129743 0.008933575 0.015650436 0.025235556 -0.033535507 0.0100465035
-0.022780912 0.021415884 0.017681487 -0.035784498 0.01904315 -0.027558094 0.0034935689 -0.007950183
-0.025463535 0.020228362 -0.021045232 0.02486632 -0.0076706586 0.024564754 -0.01467991 0.016295757
0.019803869 -0.008603001 0.02133134 -0.021387912 -0.00067915884 -0.00017467554 0.0049249358 -0.013859787
0.00030514487 -6.3306245e-05 -0.004667571 0.0076650837 0.019197714 -0.024438204 0.017704751 0.029426008
0.0064321766 0.025991077 -0.009946073 -0.02015833 0.018879943 -0.0021783095 0.013276749 -0.014246453
-0.028650405 0.0062978556 -0.026011355 0.008749394 -0.0014515528 0.037930164 0.027787862 4.4305227e-05
0.0069212825 0.012423152 0.0038119776 0.023331953 -0.007528038 -0.024024537 -0.029755872 0.0028040907
00000000: ff8a 01bc 1b59 0b3d 20a8 02bb 5992 4c3d
00000010: a7b5 85bc f397 40bb efba ba3c 426d b8bc
00000020: edde 203d 23ac 9bbb 80df 083c 7f2c 133d
00000030: fa02 d6bc 5128 0ebd 619c ab3c 6cbb ab3c
00000040: 6c21 ad3c 6d08 b53b 842b 453c 2d0e a7bc
00000050: 6192 a7b9 7b1e 22bc c22e cd3c 25b9 7eba
00000060: 0179 56bc 4ce7 243d 007c 893b 951c 1fba
00000070: 6b8a 1bbd 0af8 523c 554a 703c 3c8d 6abc
00000080: e320 253b 484f 24bc e8c3 0d3d 9a6e 84bc
00000090: 7d83 60bd 3a9d 573b d61f b03c 902f 2d3d
000000a0: b07f afbb dfc9 0b3d d7b0 363d 7b8a 5e3c
000000b0: 156f d7bc 33e0 683d 6346 51bd b0b3 883c
000000c0: 33a1 a7bb 5e15 8fbc dc3a d33c e818 9f3c
000000d0: d9a4 333c 2cd9 823b fab1 4dbb aebf 4cbc
000000e0: 3b7d 41bc 0f30 9abc c573 2abd d94f 6ebb
000000f0: b482 8239 6c0a ec3c d576 273d 91cf 563d
00000100: fa52 f63c 9db0 353d d2de e53c b01d 17ba
00000110: 88a2 d03b 193f 26bd 02e2 8dbb 5c27 223d
00000120: 2243 ec3c 6221 6dbd 8a29 4fbc 4522 693b
00000130: bada 1e3d 7016 043d 42ed 2bbc 02af ffbc
00000140: c378 99bb 7527 c43c 384a 87bc 7611 89bc
00000150: 0bab c03c a7be 02bd 78fe 8b3c d6f7 a03c
00000160: 7a5a aa3c ab0c c03c 99f0 08bd dc9a b53c
00000170: 67c5 913b e1b6 383c 1c7f 1bbc 5fcd d2bc
00000180: 31c4 9e3b 472a 0fbd eaaa c7bc 6abd 69bd
00000190: 74c0 3ebc dc01 033d e7d2 59bd 9162 b4ba
000001a0: 17fd a0bc 321e 87bc b73d 7d3c ef8b 073d
000001b0: 2485 f2b8 8599 79bc 48ae e33b 693e 9bbc
000001c0: 9c8c c53c c3e9 3b3c 7931 d6bc e624 3bbd
000001d0: 7fec ccbc 47e3 11bc ea1a 513c 916d 84bc
000001e0: 35be b23c 5013 283c 5470 e4bc a4b7 0f3c
000001f0: c9ac 973c e6e3 2e3d df2d 09bc 17a7 833c
00000200: e764 1ebc a76b f3bc aad5 25bd 9525 873c
00000210: d66f e43c a5f7 c2bc 7a18 db3b b96d 033d
00000220: d76c 5a3d 83c2 cd3c 1efe e63c 9281 43bc
00000230: ef76 923c 79e5 d93b 6107 04bc 0785 5bbd
00000240: a63b 94bb 362b 423c 3050 093d 2284 343d
00000250: c128 583c 8e2e 893c 8f0d 873d db27 f8bb
00000260: 80eb 123d c0d8 de3c b028 91bc 8c89 0fbd
00000270: 2c32 bd3b f6a1 77bb c0a9 9ebc 391d 233d
00000280: 66d0 1c3c 011e 103d 27b6 6fbc 682b 733c
00000290: 0cd4 1abd 7ceb 0ebd dec4 abbb 69cd 18bd
000002a0: 328d 863d 4b2e e33c 6279 5cba 7799 d3bc
000002b0: 721e ccbb afef 773c ac2b 2abc e8c9 783c
000002c0: 4b01 0c3d 0e47 39bc ca3b dfb9 c85f d53c
000002d0: 82c5 023c 6968 cf3c 90de f63b ea0f 823c
000002e0: b29b 253d e11d 6dbc 0de7 b33c 1074 5d3b
000002f0: c3bc 15bc 2c3e c4bb 0555 61bb 048a c1bc
00000300: 6813 553d 2c4f a3bc eb94 153c 215e 123c
00000310: 5835 803c ccba ce3c 875c 09bd 179a 243c
00000320: 099f babc 5d70 af3c c4d8 903c c492 12bd
00000330: 6100 9c3c 83c1 e1bc 5cf4 643b 7c41 02bc
00000340: e798 d0bc f3b5 a53c 0d67 acbc 74b4 cb3c
00000350: 265a fbbb 063c c93c 0184 70bc ae7e 853c
00000360: b93b a23c 9af3 0cbc 10bf ae3c b435 afbc
00000370: 9409 32ba 1c29 37b9 5b61 a13b 2914 63bc
00000380: dafb 9f39 48c3 84b8 6cf2 98bb 622b fb3b
00000390: 8644 9d3c a132 c8bc 8e09 913c d00e f13c
000003a0: 02c5 d23b 3deb d43c dbf4 22bc 1523 a5bc
000003b0: 1caa 9a3c f8c1 0ebb b986 593c f469 69bc
000003c0: 41b4 eabc 3e5e ce3b c415 d5bc 9e59 0f3c
000003d0: 0842 beba a95c 1b3d 5fa3 e33c 60d4 3938
000003e0: edcb e23b 7a8a 4b3c 5fd2 793b a722 bf3c
000003f0: c3ad f6bb 1bcf c4bc 96c2 f3bc d6c4 373b

fingerprints_hidden.0.1.bias f4 [125]
-0.00046087365 -0.001224635 0.0002946547 0.00010636325 -0.00017265983 0.0001029023 -2.4613895e-05 0.00015286796
5.6368917e-05 -0.0016078477 -0.00061860716 -0.00013491098 0.00085565844 -0.001191847 0.00019881607 0.0011709516
-0.00010371527 0.0010882688 -0.00019028423 0.00071327534 0.00058299943 -0.00016160785 0.00065180415 2.647136e-05
0.0008729495 0.00041648012 0.0013055161 -0.0010742196 -0.00063452346 9.595977e-05 -0.00011962492 -0.0014204569
0.0016365189 0.0009724708 -9.00673e-05 -6.3255735e-05 0.00016243153 -0.00028776625 -9.272124e-05 -0.00067423534
0.0007601951 -0.00024183383 0.000698548 -0.0007054644 -0.00032254134 -0.00076240813 0.0011783706 0.0011913965
-0.00073393877 -0.00025548774 -0.0010892238 -0.0005034259 0.00029780855 0.0011850091 -0.00073616026 0.0014125797
0.0013151095 -5.5388682e-05 3.822957e-05 -0.001163497 -0.0011728045 4.5243178e-05 -0.0006513936 -0.0011933916
0.0007361277 -0.0011191453 -0.00028369937 -1.8044258e-05 0.00025573064 0.0015557454 -0.0007667284 -0.00045248508
-1.03112325e-05 -8.4298204e-05 -1.6660553e-05 -0.001147829 -0.00037360267 0.000120935816 0.0007052307 0.00012025905
-0.0003862934 0.0008986538 -0.0014310008 0.00037396938 -0.0018184129 0.00016557958 -5.8393838e-05 0.0011629469
-0.00034342194 0.00033481917 0.0011194185 -0.0010958017 -8.4299405e-05 8.386218e-05 0.0011552017 0.0011863346
-0.00048702542 0.0015245313 4.5113084e-05 0.00012273111 -0.0004856793 0.00036051896 0.00022529147 -5.4483753e-05
0.0011437222 -1.369627e-05 -0.000508811 -0.00014513705 0.0011444087 0.0018361461 6.154216e-05 -0.00015364545
0.00048951176 -0.00016822192 0.00015660533 5.6263452e-05 0.00074957655 -0.00049833086 0.00049100234 0.0002579186
-0.00010796671 -0.0015195202 0.0004879046 0.00037467695 0.00070334965
00000000: 6aa1 f1b9 ef83 a0ba e27b 9a39 560f df38
00000010: 050c 35b9 40cd d738 f079 ceb7 2e4b 2039
00000020: aa6d 6c38 6bbe d2ba 062a 22ba e476 0db9
00000030: 444e 603a c037 9cba 4879 5039 9e7a 993a
00000040: b681 d9b8 3ea4 8e3a 0987 47b9 19fb 3a3a
00000050: 6ed4 183a 4775 29b9 d6dd 2a3a d00e de37
00000060: a6d6 643a 045b da39 da1d ab3a d4cc 8cba
00000070: 2656 26ba 023e c938 24df fab8 a02e baba
00000080: 7680 d63a 69ed 7e3a 83e2 bcb8 2aa8 84b8
00000090: 6252 2a39 55df 96b9 5673 c2b8 2bbf 30ba
000000a0: d447 473a c694 7db9 c31e 373a eaee 38ba
000000b0: c41a a9b9 58dc 47ba 8e73 9a3a a228 9c3a
000000c0: cc65 40ba fcf2 85b9 49c4 8eba 57f8 03ba
000000d0: 3023 9c39 4f52 9b3a e1fa 40ba 4f26 b93a
000000e0: c15f ac3a 2551 68b8 b058 2038 7b80 98ba
000000f0: cab8 99ba 7ec3 3d38 49c2 2aba 946b 9cba
00000100: b2f8 403a 49b0 92ba 7cbd 94b9 c05d 97b7
00000110: 9613 8639 27ea cb3a 46fe 48ba 853b edb9
00000120: 68fe 2cb7 41c9 b0b8 44c2 8bb7 c072 96ba
00000130: 1ae0 c3b9 ec9e fd38 3bdf 383a 9633 fc38
00000140: 6c87 cab9 a393 6b3a 6b90 bbba 5211 c439
00000150: d057 eeba 6e9f 2d39 e8eb 74b8 066e 983a
00000160: 500d b4b9 ab8a af39 74b9 923a 01a1 8fba
00000170: e6c9 b0b8 2adf af38 236a 973a c97e 9b3a
00000180: 7257 ffb9 c8d2 c73a ce37 3d38 62b1 0039
00000190: c6a2 feb9 0904 bd39 383c 6c39 7c85 64b8
000001a0: f3e8 953a 08c9 65b7 ba61 05ba ee2f 18b9
000001b0: fcff 953a d7aa f03a 3210 8138 e31b 21b9
000001c0: 9452 003a ba64 30b9 6c36 2439 6cfc 6b38
000001d0: 3b7f 443a 6ba2 02ba 9cb6 003a 4039 8739
000001e0: 306c e2b8 a32a c7ba 72cd ff39 4a70 c439
000001f0: ff60 383a

fingerprints_hidden.0.2.weight f4 [125]
0.96927196 0.9538443 0.9753404 1.0027864 1.0209169 0.97616726 0.98140323 0.9818575
1.0169393 0.994147 0.9928469 0.97186 0.99306273 0.9758116 0.96413314 1.0012808
0.9925099 1.0283412 0.9815377 1.0167595 1.002123 0.98405313 0.95283127 0.99018484
0.9931089 1.0176319 0.93576306 0.94260514 0.9859966 0.97866607 0.9634711 1.0476611
0.9993501 0.9712041 0.96995205 0.957123 1.0238186 0.94508994 0.9842725 0.98567146
1.0016435 0.98085874 0.9917907 0.9703134 0.97940534 0.97120476 0.9871931 0.98089224
0.9856245 1.0133623 0.96742564 1.0221981 0.9661296 0.9649842 0.9795845 0.9929842
0.98616415 0.94897753 0.9801113 0.9969012 0.9850993 0.99545085 0.98944086 0.9684001
0.97581244 0.97913545 1.0218235 0.95980877 0.95451576 0.99170035 0.9857619 0.9796172
0.9742787 0.94709295 0.95921606 0.9767739 0.9678203 0.9808955 0.9857893 0.9921252
0.98575526 1.0042707 1.0161184 0.96155936 0.99344164 0.96573097 0.96185964 0.9722944
0.97973883 0.9896453 0.971555 0.99924314 0.98824584 0.96343184 0.96795726 0.9804007
1.0064619 0.9932505 0.98682386 0.9691166 0.94882804 0.9760436 0.9824007 0.9735011
1.0217029 1.0054196 1.0019977 0.9938162 0.99306494 0.98359793 0.995277 0.9433817
0.9880644 0.98875445 0.99224085 1.0000427 0.98518527 0.9490082 0.996686 0.95886785
0.9794075 1.0239717 0.9519084 0.97368896 0.9650364
00000000: 3522 783f 242f 743f e9af 793f 4e5b 803f
00000010: 68ad 823f 19e6 793f 3e3d 7b3f 035b 7b3f
00000020: 112b 823f 6b80 7e3f 372b 7e3f d1cb 783f
00000030: 5c39 7e3f cace 793f 6ed1 763f f829 803f
00000040: 2115 7e3f afa0 833f 0e46 7b3f 2d25 823f
00000050: 9145 803f e8ea 7b3f c0ec 733f c17c 7d3f
00000060: 633c 7e3f c341 823f 2b8e 6f3f 924e 713f
00000070: 466a 7c3f dc89 7a3f 0ba6 763f c219 863f
00000080: 68d5 7f3f d5a0 783f c74e 783f 0306 753f
00000090: 7d0c 833f 6af1 713f 48f9 7b3f f754 7c3f
000000a0: db35 803f 8f19 7b3f ffe5 7d3f 7566 783f
000000b0: 4fba 7a3f e0a0 783f b0b8 7c3f c11b 7b3f
000000c0: e351 7c3f dbb5 813f 35a9 773f 63d7 823f
000000d0: 4554 773f 3409 773f 0dc6 7a3f 3634 7e3f
000000e0: 4175 7c3f 31f0 723f 93e8 7a3f eb34 7f3f
000000f0: 782f 7c3f ded5 7e3f ff4b 7d3f 12e9 773f
00000100: d8ce 793f 9fa8 7a3f 1dcb 823f 07b6 753f
00000110: 255b 743f 13e0 7d3f e45a 7c3f 31c8 7a3f
00000120: 546a 793f af74 723f 2f8f 753f db0d 7a3f
00000130: 12c3 773f f81b 7b3f b05c 7c3f ebfb 7d3f
00000140: 755a 7c3f f18b 803f 2b10 823f c128 763f
00000150: 3152 7e3f 253a 773f 6f3c 763f 49e8 783f
00000160: 2ad0 7a3f 6559 7d3f d4b7 783f 66ce 7f3f
00000170: aefd 7c3f 78a3 763f 0ccc 773f 8afb 7a3f
00000180: bed3 803f aa45 7e3f 7da0 7c3f 0718 783f
00000190: 65e6 723f fedd 793f 9d7e 7b3f 5e37 793f
000001a0: 29c7 823f 97b1 803f 7641 803f bd6a 7e3f
000001b0: 8139 7e3f 13cd 7b3f 79ca 7e3f 7781 713f
000001c0: caf1 7c3f 031f 7d3f 7f03 7e3f 6601 803f
000001d0: 1a35 7c3f 34f2 723f d026 7f3f 5d78 753f
000001e0: 73ba 7a3f 8111 833f 45b0 733f ae43 793f
000001f0: a00c 773f

fingerprints_hidden.0.2.bias f4 [125]
-0.02606595 -0.041022718 0.0007275783 0.01651738 0.016410287 -0.017441493 -0.017070353 -0.009753404
-0.011826791 -0.0065453183 -0.007760793 -0.016806569 0.0132419625 -0.016170915 -0.038295917 0.013051004
0.01042311 0.017474357 -0.018861262 -0.0010309828 -0.01878477 0.006843484 -0.032308634 -0.00791206
0.006742806 0.014395339 -0.02881266 -0.024877744 0.003179395 -0.022100665 -0.0049971556 0.03791949
0.020390851 -0.015704237 -0.0060130055 0.021533022 0.029668802 0.0244162 -0.0027292464 -0.018272853
0.03757655 -0.027240645 -0.004965557 -0.0057835546 -0.01309749 -0.007903151 -0.015654638 -0.011883888
0.013698727 0.015361391 -0.02499139 0.011846308 -0.028886376 -0.018095158 -0.007199233 0.019211385
0.022289038 -0.038084965 -0.033815768 -0.00171318 -0.0030533164 -0.015016139 -0.004333425 -0.03178453
0.007121593 -0.009510814 0.027105575 -0.040536445 0.010192318 -0.036627527 -0.00054776424 -0.03373507
-0.024024613 -0.016561214 -0.009577186 0.004715281 -0.029813575 -0.010180934 0.001288898 -0.0023845749
0.033444107 0.020972732 0.019561091 -0.03726264 -0.010092881 -0.017502999 -0.022039859 -0.021534247
0.019990819 -0.026795823 -0.030582832 0.015758034 -0.014031336 -0.018040238 0.00028495738 0.008004878
0.004951676 0.019773757 0.0008439588 0.012087625 -0.01552468 -0.002214168 -0.009974541 -0.0031980241
0.019120606 -0.009571975 0.028257445 0.005970912 0.020418197 -0.007994814 0.014325681 -0.039489347
-0.010684999 -0.016212517 -0.025119403 0.029382637 0.017988758 -0.015159515 -0.007828873 -0.025430772
-0.00066594064 0.018721394 -0.012005793 -0.006318714 -0.03318584
00000000: 4288 d5bc 7007 28bd f4ba 3e3a 754f 873c
00000010: de6e 863c 76e1 8ebc 20d7 8bbc becc 1fbc
00000020: 28c5 41bc 1c7a d6bb 404e febb eead 89bc
00000030: d1f4 583c de78 84bc 2edc 1cbd e1d3 553c
00000040: b1c5 2a3c 6226 8f3c ef82 9abc 0b22 87ba
00000050: 85e2 99bc 4e3f e03b 0f56 04bd 96a1 01bc
00000060: c2f2 dc3b 6eda 6b3c 8708 ecbc 69cc cbbc
00000070: 665d 503b 740c b5bc 2ebf a3bb 7851 1b3d
00000080: b70a a73c 2ca6 80bc bf08 c5bb 0566 b03c
00000090: fd0b f33c 7c04 c83c 28dd 32bb f3b0 95bc
000000a0: dee9 193d c627 dfbc 1cb6 a2bb f983 bdbb
000000b0: db96 56bc 387c 01bc 283e 80bc a4b4 42bc
000000c0: a070 603c 58ae 7b3c beba ccbc 0417 423c
000000d0: 1fa3 ecbc 4c3c 94bc 8be7 ebbb 3261 9d3c
000000e0: 8097 b63c fbfe 1bbd 6782 0abd c88c e0ba
000000f0: 261a 48bb 4006 76bc 67ff 8dbb 7f30 02bd
00000100: 415c e93b 3fd3 1bbc 830c de3c 8b09 26bd
00000110: aefd 263c bf06 16bd d697 0fba c92d 0abd
00000120: 44cf c4bc 62ab 87bc a1e9 1cbc a582 9a3b
00000130: 993b f4bc efcd 26bc 3ef0 a83a 8746 1cbb
00000140: b0fc 083d 02cf ab3c 953e a03c b6a0 18bd
00000150: 9c5c 25bc 7362 8fbc ef8c b4bc 9768 b0bc
00000160: c9c3 a33c ea82 dbbc d988 fabc fe16 813c
00000170: b0e3 65bc 1fc9 93bc 5566 9539 e426 033c
00000180: ab41 a23b 93fc a13c 1e3d 5d3a 2d0b 463c
00000190: 3a5b 7ebc 931b 11bb 426c 23bc f195 51bb
000001a0: d1a2 9c3c c6d3 1cbc 287c e73c a4a7 c33b
000001b0: 1044 a73c aefc 02bc 43b6 6a3c 95bf 21bd
000001c0: 2210 2fbc 1dd0 84bc 35c7 cdbc dbb3 f03c
000001d0: 295d 933c 9d5f 78bc ac44 00bc 3254 d0bc
000001e0: 8592 2eba 9c5d 993c f2b3 44bc 370d cfbb
000001f0: e0ed 07bd

fingerprints_hidden.0.2.running_mean f4 [125]
0.28664052 0.1864641 -0.08977993 -0.16887791 0.22174367 -0.38413876 -0.021631133 0.3301631
-0.09771841 -0.3289487 0.10556349 0.24813057 -0.2053134 -0.28833315 0.26572797 -0.053737763
0.055110008 0.012818254 -0.021134337 -0.37051964 -0.04713528 -0.11174262 0.014491448 0.1051555
0.08334695 0.25436178 -0.17966595 -0.28862217 0.17892382 -0.10250559 -0.34221536 0.12422023
0.010327816 -0.018486332 0.14068869 -0.050873525 -0.08292442 -0.18573572 -0.25575787 -0.18930717
0.091467164 -0.39766052 -0.5749061 0.16933005 0.35319144 0.18202594 0.12883027 -0.13676049
-0.18609865 -0.57576644 0.02000082 0.053191505 0.054970868 0.04151797 0.15466005 -0.05851629
0.04467614 -0.30809546 -0.4051638 -0.10627497 0.1563891 0.3720355 0.015031442 0.34340546
-0.13470094 0.012715066 -0.42680648 0.13926469 -0.001464268 0.10571041 0.20912 -0.20064114
-0.110359445 0.22688384 0.27517217 0.21802236 0.0283648 0.21528924 0.19701657 0.15340874
-0.1259981 -0.12967624 -0.104962304 0.1043239 0.23919244 -0.48342186 0.039915323 -0.21747321
-0.13140643 -0.03181273 -0.20465839 -0.003341536 0.14187026 -0.06355286 0.0910837 0.22406317
-0.17974694 0.13348427 0.31095392 -0.01768225 -0.26925907 -0.085587606 -0.041671675 0.23910311
0.37363338 0.20950185 -0.06918878 0.115719564 -0.23074847 -0.04347307 -0.15806988 0.13539508
0.24887002 0.2915466 0.27508992 -0.167548 -0.14441064 -0.14134231 0.3052023 0.19708559
-0.06663401 0.024941921 0.3556428 0.072842255 -0.086876154
00000000: 8cc2 923e 72f0 3e3e 8ade b7bd 55ee 2cbe
00000010: c610 633e d6ad c4be c633 b1bc 230b a93e
00000020: 9720 c8bd f76b a8be ac31 d83d f115 7e3e
00000030: ad3d 52be 67a0 93be 7f0d 883e 211c 5cbd
00000040: 08bb 613d a703 523c eb21 adbc c0b4 bdbe
00000050: ec10 41bd 51d9 e4bd 8a6d 6d3c c45b d73d
00000060: ceb1 aa3d b53b 823e 5afa 37be 49c6 93be
00000070: ce37 373e 73ee d1bd da36 afbe 2d67 fe3d
00000080: 0036 293c a670 97bc b210 103e c260 50bd
00000090: 47d4 a9bd 8131 3ebe b2f2 82be bdd9 41be
000000a0: 2353 bb3d 299a cbbe 0c2d 13bf db64 2d3e
000000b0: 82d5 b43e 0265 3a3e 15ec 033e f10a 0cbe
000000c0: a590 3ebe 6e65 13bf c2d8 a33c 56df 593d
000000d0: 2229 613d bf0e 2a3d 345f 1e3e c7ae 6fbd
000000e0: 54fe 363d b0be 9dbe a171 cfbe b1a6 d9bd
000000f0: 7724 203e 707b be3e 7046 763c d7d2 af3e
00000100: 0bef 09be da52 503c 6186 dabe 679b 0e3e
00000110: aeec bfba b37e d83d 8e23 563e df74 4dbe
00000120: 2204 e2bd 3d54 683e 5ee3 8c3e 4141 5f3e
00000130: 4c5d e83c c874 5c3e b6be 493e 2e17 1d3e
00000140: a505 01be d9c9 04be 7af6 d6bd c5a7 d53d
00000150: ddee 743e 1283 f7be 407e 233d 4cb1 5ebe
00000160: 688f 06be 114e 02bd f891 51be acfd 5abb
00000170: 7046 113e 0028 82bd 178a ba3d d170 653e
00000180: 950f 38be 1ab0 083e 5a35 9f3e 5eda 90bc
00000190: 53dc 89be 8e48 afbd ebaf 2abd 72d7 743e
000001a0: e04c bf3e a787 563e d9b2 8dbd 61fe ec3d
000001b0: 5449 6cbe d110 32bd 12dd 21be 02a5 0a3e
000001c0: c8d7 7e3e 9945 953e 96d8 8c3e b491 2bbe
000001d0: 62e0 13be 0abc 10be 7a43 9c3e ced0 493e
000001e0: 6977 88bd 0053 cc3c d016 b63e 522e 953d
000001f0: 20ec b1bd

fingerprints_hidden.0.2.running_var f4 [125]
0.1144226 0.08602347 0.083982475 0.07333765 0.10101253 0.0910744 0.06291396 0.118060455
0.07784121 0.08538141 0.10726841 0.10028699 0.07087155 0.10158504 0.10374132 0.110275686
0.09689052 0.057394907 0.11890986 0.08667443 0.07178542 0.075691395 0.07447134 0.067082204
0.1024747 0.14476287 0.08288914 0.08677489 0.08233947 0.09592803 0.101197705 0.098017864
0.09997526 0.11594687 0.10272982 0.12694925 0.07903899 0.098683566 0.089126244 0.10985545
0.107062705 0.079177365 0.106151 0.0857186 0.110858664 0.08921387 0.09339795 0.095484845
0.11399404 0.094426945 0.13736902 0.069152445 0.09675044 0.10149403 0.11624552 0.09066553
0.09949861 0.08357307 0.101900086 0.12709124 0.07855973 0.08661018 0.10959646 0.09311042
0.1655188 0.1123727 0.069392554 0.0859122 0.096596144 0.088677816 0.06655375 0.09634528
0.092591494 0.11943871 0.07588349 0.09672836 0.05861507 0.07197385 0.08936772 0.083418064
0.09080136 0.08263024 0.06705235 0.06486527 0.10749829 0.12083878 0.081075735 0.089951664
0.08974882 0.0697787 0.088032864 0.06772813 0.07912649 0.09142818 0.13743392 0.15920757
0.07130653 0.0876099 0.07655718 0.07443752 0.13115032 0.09872591 0.080378525 0.1003058
0.09792995 0.07874791 0.081884086 0.07433192 0.087821335 0.086660795 0.12146138 0.09511894
0.0859488 0.09748381 0.10339736 0.08907905 0.06928661 0.09290804 0.11258407 0.107455224
0.085968286 0.09123786 0.08873236 0.12580715 0.08339176
00000000: 6556 ea3d 132d b03d 01ff ab3d 0d32 963d
00000010: a8df ce3d 3785 ba3d 09d9 803d aec9 f13d
00000020: 366b 9f3d 73dc ae3d 8aaf db3d 4463 cd3d
00000030: 1a25 913d d10b d03d 5476 d43d 38d8 e13d
00000040: 896e c63d ec16 6b3d 0387 f33d 5d82 b13d
00000050: 3c04 933d 1704 9b3d 6e84 983d 6562 893d
00000060: 41de d13d b83c 143e c8c1 a93d 09b7 b13d
00000070: 99a1 a83d ea75 c43d be40 cf3d 97bd c83d
00000080: d4bf cc3d 8d75 ed3d 0364 d23d fcfe 013e
00000090: 32df a13d 9c1a ca3d d287 b63d e5fb e03d
000000a0: b143 db3d be27 a23d b265 d93d 3c8d af3d
000000b0: de09 e33d c3b5 b63d 6d47 bf3d 8f8d c33d
000000c0: b575 e93d ea62 c13d 77aa 0c3e cc9f 8d3d
000000d0: 1825 c63d 1adc cf3d 2212 ee3d d9ae b93d
000000e0: edc5 cb3d 5c28 ab3d feb0 d03d 3524 023e
000000f0: ece3 a03d ae60 b13d 1c74 e03d adb0 be3d
00000100: c37d 293e a823 e63d af1d 8e3d bcf2 af3d
00000110: 33d4 c53d b79c b53d 554d 883d ad50 c53d
00000120: 9ca0 bd3d 489c f43d ce68 9b3d 8519 c63d
00000130: 5b16 703d 0767 933d 6c06 b73d 17d7 aa3d
00000140: 10f6 b93d 0b3a a93d be52 893d 15d8 843d
00000150: 1028 dc3d 537a f73d 090b a63d 9438 b83d
00000160: 3bce b73d 23e8 8e3d 934a b43d 0cb5 8a3d
00000170: 120d a23d b33e bb3d 7abb 0c3e 4f07 233e
00000180: 2809 923d d26c b33d 03ca 9c3d b372 983d
00000190: 454c 063e cf30 ca3d 7f9d a43d 216d cd3d
000001a0: 7f8f c83d 9646 a13d d8b2 a73d 553b 983d
000001b0: acdb b33d 377b b13d bec0 f83d b8cd c23d
000001c0: ed05 b03d 97a5 c73d ffc1 d33d 146f b63d
000001d0: 23e6 8d3d 9246 be3d 7a92 e63d 7c11 dc3d
000001e0: 2410 b03d eada ba3d 50b9 b53d 97d3 003e
000001f0: 4dc9 aa3d

fingerprints_hidden.1.1.weight f4 [125, 125]
0.040504273 0.0513467 -0.042141773 0.03659937 -0.04290612 0.06981892 0.08641763 0.048235763
-0.0007301415 -0.01643165 0.039496068 -0.023380991 0.060844924 -0.01438468 -0.04633116 -0.043043606
0.09852436 0.053767517 -0.041422836 -0.06950027 0.06431135 0.04293199 -0.009570495 0.03505028
-0.07478822 -0.045424264 -0.013620226 -0.032764886 0.014466567 0.05902867 -0.07409979 0.069879286
-0.043649577 0.020833386 0.059353735 -0.026833832 -0.0378496 0.054275747 -0.01150254 0.08594562
-0.006155619 0.023323005 -0.03258257 -0.068262346 -0.030868957 0.049853403 -0.026151203 0.014944547
0.013950646 -0.06649736 -0.08877339 0.12726718 0.038622588 -0.087440684 -0.04082918 -0.019807018
0.012413428 -0.0307912 0.08828977 -0.09002995 -0.078537755 0.087281175 -0.037495453 0.07802986
0.055569436 -0.0997797 -0.05576706 -0.06780704 0.0014551809 0.11963006 0.06610015 -0.05386946
-0.025418857 -0.003364474 0.07752753 -0.029182898 0.04374988 -0.045489177 0.053381763 0.05858636
-0.07850735 -0.038209163 -0.011758921 -0.045411166 0.07595296 -0.043059357 -0.023186078 0.10238358
0.033054072 -0.042809904 0.034669574 -0.064017996 0.072268605 -0.056963462 0.050472554 -0.091764845
0.040314496 0.037100587 0.07927793 0.010094182 -0.039628413 -0.003707956 0.0765456 0.0085056955
0.0389369 -0.04386081 0.07853963 0.115545005 -0.030932998 0.0838885 0.08387846 0.032569993
-0.028317876 -0.06960599 -0.037607387 0.07305723 0.059185117 0.0045496044 0.06420939 0.048682436
-0.07054258 0.032576885 -0.0702687 0.09385389 -0.04645045 -0.052082635 0.004705797 0.099762216
0.011122386 -0.0938023 -0.022321071 0.0012105231 -0.049676012 0.015206742 -0.030735113 -0.07773579
0.07376164 0.042263433 0.041865826 0.07510113 0.05764984 -0.057076313 0.055771474 -0.095473565
-0.04856264 0.073945664 -0.042776227 -0.050471812 0.069563165 -0.008763492 -0.030604009 0.0070740366
0.051557798 -0.038606867 0.025403755 -0.029344242 0.0086780675 0.058635443 -0.010199836 -0.027379647
-0.10094554 0.04609051 0.07179843 0.10323069 -0.057387587 -0.040677316 0.11268648 -0.023440585
-0.079293065 -0.025938706 -0.136162 0.0005081056 0.08352813 -0.025635567 -0.013714931 -0.036630925
0.026411036 -0.010007037 0.067428164 0.061868176 -0.046145353 0.043376602 -0.017916527 0.076606095
-0.01445756 0.012196773 0.023399014 0.038868632 -0.020612456 -0.03396113 -0.025227437 0.06812974
0.062039122 0.07773187 -0.072861366 -0.032037843 -0.03307217 -0.030185936 0.011590264 0.006913593
0.034844812 0.089019366 -0.12534937 0.020661112 -0.039916128 -0.025611319 -0.04368634 7.776357e-05
0.019947348 0.06800619 -0.054440994 0.09626685 -0.07091593 0.08437666 0.047481455 0.0794945
-0.042848915 0.069626495 0.044844832 0.0026854426 0.08806483 0.02467619 0.07020118 -0.049590956
0.01773216 -0.07016324 -0.020500373 0.0030900221 0.08798106 -0.094635 0.021047127 -0.009237321
-0.048372135 0.0503619 -0.051939987 -0.052414168 -0.037890974 0.08740284 0.06542349 -0.051484473
-0.09310256 0.07345891 -0.028956387 -0.029959923 0.046334215 -0.028385349 0.038514283 -0.08147454
-0.031930193 -0.07018883 -0.0048107887 0.004714825 0.0045393566 -0.04778089 -0.04951309 -0.07900495
00000000: cfe7 253d eb50 523d da9c 2cbd 39e9 153d
00000010: 54be 2fbd 39fd 8e3d bafb b03d dd92 453d
00000020: f766 3fba ab9b 86bc a1c6 213d 7e89 bfbc
00000030: 8738 793d b9ad 6bbc bec5 3dbd 7e4e 30bd
00000040: 24c7 c93d 543b 5c3d feaa 29bd 2856 8ebd
00000050: abb5 833d 74d9 2f3d 91cd 1cbc e290 0f3d
00000060: 912a 99bd cb0e 3abd 5e27 5fbc 7934 06bd
00000070: 2e05 6d3c 0cc8 713d a1c1 97bd df1c 8f3d
00000080: e6c9 32bd c7aa aa3c e71c 733d a0d2 dbbc
00000090: 2f08 1bbd 3f50 5e3d 2675 3cbc 4204 b03d
000000a0: 13b5 c9bb e30f bf3c 4d75 05bd 21cd 8bbd
000000b0: e5e0 fcbc 1533 4c3d 0c3b d6bc f9d9 743c
000000c0: 4091 643c c52f 88bd d3ce b5bd 5452 023e
000000d0: b832 1e3d 1a14 b3bd 803c 27bd 5442 a2bc
000000e0: b161 4b3c d43d fcbc 44d1 b43d 9f61 b8bd
000000f0: 67d8 a0bd 79c0 b23d d594 19bd 1fce 9f3d
00000100: c79c 633d 4d59 ccbd 006c 64bd 6bde 8abd
00000110: c5bb be3a 9b00 f53d 845f 873d 39a6 5cbd
00000120: 353b d0bc 827e 5cbb c1c6 9e3d f910 efbc
00000130: 1333 333d dc52 3abd d6a6 5a3d 40f8 6f3d
00000140: 76c8 a0bd 3681 1cbd 7da8 40bc 0f01 3abd
00000150: 3a8d 9b3d 025f 30bd bbf0 bdbc 7bae d13d
00000160: b563 073d 7059 2fbd af01 0e3d de1b 83bd
00000170: 9001 943d 8552 69bd 4fbc 4e3d 35ef bbbd
00000180: d020 253d c9f6 173d 785c a23d 1162 253c
00000190: 6751 22bd 2e01 73bb f1c3 9c3d 795b 0b3c
000001a0: 4d7c 1f3d 65a7 33bd 63d9 a03d dca2 ec3d
000001b0: 3367 fdbc bccd ab3d 78c8 ab3d 1d68 053d
000001c0: e4fa e7bc 968d 8ebd 340a 1abd 079f 953d
000001d0: 186c 723d d914 953b 3680 833d 3c67 473d
000001e0: a178 90bd 576f 053d 09e9 8fbd 7836 c03d
000001f0: d442 3ebd 9a54 55bd 1633 9a3b 2250 cc3d
00000200: ab3a 363c 6c1b c0bd aeda b6bc 6aaa 9e3a
00000210: 1379 4bbd b325 793c 34c8 fbbc f133 9fbd
00000220: 5810 973d 6c1c 2d3d 807b 2b3d 9fce 993d
00000230: 3d22 6c3d dac8 69bd a170 643d a587 c3bd
00000240: 9ee9 46bd d370 973d 2036 2fbd 88bb 4ebd
00000250: 2277 8e3d c094 0fbc 42b5 fabc 52cd e73b
00000260: 452e 533d 3c22 1ebd 891b d03c 5663 f0bc
00000270: 742e 0e3c b82b 703d 371d 27bc 484b e0bc
00000280: 89bc cebd 67c9 3c3d 0e0b 933d 9d6a d33d
00000290: 3f0f 6bbd 429d 26bd 2bc8 e63d 7806 c0bc
000002a0: 6764 a2bd 697d d4bc 0d6e 0bbe 6432 053a
000002b0: cc10 ab3d ae01 d2bc 97b4 60bc 4f0a 16bd
000002c0: f55b d83c 8ef4 23bc c717 8a3d 7c69 7d3d
000002d0: e902 3dbd aaab 313d aec5 92bc a8e3 9c3d
000002e0: 67df 6cbc f9d4 473c 4aaf bf3c b734 1f3d
000002f0: 74db a8bc d31a 0bbd c5a9 cebc 9b87 8b3d
00000300: bc1c 7e3d e331 9f3d 5738 95bd 1d3a 03bd
00000310: af76 07bd 7f48 f7bc 17e5 3d3c 6c8b e23b
00000320: 6fb9 0e3d c94f b63d 965b 00be 7e41 a93c
00000330: 187f 23bd d4ce d1bc 73f0 32bd 0015 a338
00000340: 9f68 a33c d446 8b3d 85fd 5ebd 8e27 c53d
00000350: 5f3c 91bd accd ac3d ea7b 423d 03ce a23d
00000360: 5882 2fbd 5698 8e3d 37af 373d 40fe 2f3b
00000370: 555b b43d b925 ca3c a3c5 8f3d e31f 4bbd
00000380: 0943 913c bfb1 8fbd 66f0 a7bc f881 4a3b
00000390: 6a2f b43d ffcf c1bd 066b ac3c 2258 17bc
000003a0: dc21 46bd 4848 4e3d 06bf 54bd 3db0 56bd
000003b0: 9133 1bbd 4300 b33d c0fc 853d 62e1 52bd
000003c0: 8eac bebd a071 963d f235 edbc 836e f5bc
000003d0: f2c8 3d3d 6488 e8bc 27c1 1d3d 20dc a6bd
000003e0: 3cc9 02bd 29bf 8fbd d2a3 9dbb d27e 9a3b
000003f0: e2be 943b e5b5 43bd 3dce 4abd 59cd a1bd

fingerprints_hidden.1.1.bias f4 [125]
-0.002725909 0.0002523133 -0.0038976062 -0.005014742 0.0015153348 -0.0011893732 0.001192277 -0.00050771376
0.005016892 -0.0027670232 0.0021249189 -0.00064576627 -0.0011792276 -0.0016639367 0.001122072 0.00012856268
0.00038519173 0.00043790662 0.00013492673 -2.8618757e-05 -4.59765e-05 0.0016512255 -0.0027122614 0.0016696944
0.00062631356 0.0003529094 -0.00071365066 0.0048328047 -0.004923795 -0.0027202074 -0.00021274577 -0.0019636478
0.00015741057 -0.00077147933 0.004668819 0.00085260416 6.693098e-05 -0.0018760442 -0.00059553096 -4.0218714e-05
-3.7100574e-05 0.00020780525 0.0006967295 1.7313585e-05 9.51827e-05 -0.002619292 -0.00029584827 0.00044938212
-0.0010635806 0.0048016626 0.0018385625 -0.00015368973 0.0021422748 -0.0007512679 -0.0011623369 0.0017726626
-0.00054938195 -0.0001685164 -0.00020484958 0.0006038167 0.0013599009 -0.0038255784 4.556268e-05 -0.0011900219
-0.0025207745 -0.004238334 -0.0015005702 0.0012045215 -0.0016650751 -0.00020277589 -0.0018626989 0.00469173
0.0047010356 -0.0047610607 -0.0013174275 0.0020665112 -0.00092518755 0.0032176012 0.00499363 0.00042743498
0.00015457944 0.0046112565 0.0044638305 -0.0033122017 -0.00022205831 -0.00047832762 0.00386686 0.00087755895
0.00042992085 -0.0021194466 0.001748174 0.0017459865 -0.0020063084 -0.00038273208 0.0015939377 -0.0027894448
0.00033625256 0.0021312775 0.0006816032 6.2579515e-05 -0.004488162 -0.002205336 8.620083e-05 -0.0049329177
-0.0033571352 0.0036339422 0.0017066869 -0.0037759475 -0.0039171656 -0.0017649592 -0.0011741152 0.003936525
0.0043422366 -0.00013193539 0.00028389358 0.0025991993 0.0048981924 0.0007038523 0.00012862787 -0.0018747984
0.00033828494 0.0021583033 0.00079461554 8.348421e-05 -0.0049927146
00000000: 2aa5 32bb eb48 8439 fb6e 7fbb b452 a4bb
00000010: 339e c63a bee4 9bba 2d46 9c3a 1818 05ba
00000020: be64 a43b f256 35bb 3942 0b3b a448 29ba
00000030: 5090 9aba 7318 daba 7d12 933a c8ce 0639
00000040: 8ff3 c939 d596 e539 1e7b 0d39 5012 f0b7
00000050: e4d6 40b8 ef6d d83a 32c0 31bb a6d9 da3a
00000060: 312f 243a b306 b939 4914 3bba 815c 9e3b
00000070: c957 a1bb 8245 32bb 8214 5fb9 8bb0 00bb
00000080: 940e 2539 1a3d 4aba e4fc 983b 4c81 5f3a
00000090: 4c5d 8c38 99e5 f5ba 681d 1cba 84b0 28b8
000000a0: 709c 1bb8 4ce6 5939 baa4 363a a43c 9137
000000b0: d39c c738 6da8 2bbb 151c 9bb9 0c9b eb39
000000c0: d867 8bba 4457 9d3b ecfb f03a c627 21b9
000000d0: 6865 0c3b bcf0 44ba 8e59 98ba b058 e83a
000000e0: 6604 10ba c7b3 30b9 e4cc 56b9 7449 1e3a
000000f0: b43e b23a 8eb6 7abb 8e1a 3f38 82fa 9bba
00000100: 9433 25bb b9e1 8abb c8ae c4ba 09e1 9d3a
00000110: a63e daba 3da0 54b9 ce25 f4ba 15bd 993b
00000120: 250b 9a3b ac02 9cbb 88ad acba 4e6e 073b
00000130: 4988 72ba 64de 523b 9ba1 a33b 5a19 e039
00000140: 9a16 2239 061a 973b 5345 923b 8611 59bb
00000150: 53d8 68b9 0cc8 fab9 256b 7d3b fc0b 663a
00000160: 0067 e139 6ae6 0abb fc22 e53a 96d9 e43a
00000170: 457c 03bb 6ea9 c8b9 adeb d03a 1ecf 36bb
00000180: 0e4b b039 e7ac 0b3b 9ead 323a 1f3d 8338
00000190: 6f11 93bb 6687 10bb b8c6 b438 50a4 a1bb
000001a0: 6203 5cbb 6f27 6e3b e9b2 df3a e375 77bb
000001b0: 915b 80bb 3456 e7ba c5e4 99ba f7fd 803b
000001c0: 5249 8e3b 2358 0ab9 8dd7 9439 5457 2a3b
000001d0: 0481 a03b ba82 383a 48e0 0639 ccbb f5ba
000001e0: d65b b139 5272 0d3b bf4d 503a 3e14 af38
000001f0: ed99 a3bb

fingerprints_hidden.1.2.weight f4 [125]
1.0159208 0.9712993 1.0047626 0.9508696 1.0151094 1.0311222 0.9790837 0.96574485
0.9407756 0.9772736 0.9960403 1.0266156 0.9920387 0.9991137 0.957789 0.975043
0.9791614 0.97386706 0.9606969 0.9661518 1.0104169 1.0007511 0.9656014 0.9484124
0.99722695 0.9648178 0.9696277 1.0517428 0.9862912 0.9781297 0.9689982 0.9855601
0.9450359 0.9877523 0.9639639 0.95612264 0.9675401 0.9777066 0.9706455 0.97369343
0.9799422 1.0035368 0.9871769 0.9932079 0.9574788 0.9541681 0.96563363 0.9426091
0.9976606 1.0340278 1.0036714 0.97721004 0.95078486 0.964224 0.95717525 0.94552433
1.0138348 0.99394125 0.9750384 1.0040793 0.97383714 0.970113 0.9733042 0.9735451
0.9868197 0.9756557 0.984361 0.97074664 1.0130378 1.0368869 0.9866617 0.99180394
0.997583 0.9855587 0.9679547 0.9771962 0.96154654 0.99042696 1.0117416 0.9733182
0.9765079 0.9483098 0.96287674 0.99852806 0.94272333 0.9636184 0.99007416 0.9826871
0.9567079 0.97531027 0.93630403 0.9467958 0.970816 1.0066625 0.97487324 1.0087308
1.0067481 0.98087084 0.9694168 0.9579122 1.02873 0.97258145 0.9769196 0.9730576
0.9803253 1.0080831 0.98664224 0.997055 0.95482767 1.0221705 0.9919362 0.9731546
1.0064813 1.0053282 0.97337466 0.9684547 0.954302 0.99392873 0.9627546 0.9797382
0.9726455 0.92730206 1.034564 0.9808139 0.9628491
00000000: b109 823f 12a7 783f 109c 803f 316c 733f
00000010: 1bef 813f d0fb 833f 3ba5 7a3f 0e3b 773f
00000020: abd6 703f 9a2e 7a3f 7ffc 7e3f 2468 833f
00000030: 40f6 7d3f eac5 7f3f a931 753f 6b9c 793f
00000040: 52aa 7a3f 5a4f 793f 3bf0 753f b955 773f
00000050: 5755 813f 9d18 803f a731 773f 28cb 723f
00000060: 444a 7f3f 4dfe 763f 8539 783f 829f 863f
00000070: 957d 7c3f b566 7a3f 4410 783f ab4d 7c3f
00000080: dfed 713f 56dd 7c3f 57c6 763f 74c4 743f
00000090: b5b0 773f fb4a 7a3f 397c 783f f943 793f
000000a0: 7edd 7a3f e573 803f a0b7 7c3f df42 7e3f
000000b0: 551d 753f 5c44 743f c433 773f d44e 713f
000000c0: af66 7f3f 065b 843f 4e78 803f 702a 7a3f
000000d0: a366 733f 62d7 763f 7009 753f e20d 723f
000000e0: 57c5 813f ef72 7e3f 1e9c 793f ac85 803f
000000f0: 644d 793f 5359 783f 772a 793f 403a 793f
00000100: 37a0 7c3f 92c4 793f 15ff 7b3f da82 783f
00000110: 39ab 813f b6b8 843f dc95 7c3f dde6 7d3f
00000120: 9961 7f3f 934d 7c3f e1cb 773f 8829 7a3f
00000130: ea27 763f 9f8c 7d3f c080 813f 622b 793f
00000140: 6cfc 793f 6ec4 723f 177f 763f 899f 7f3f
00000150: 5156 713f b2af 763f 8075 7d3f 6291 7b3f
00000160: cfea 743f efad 793f 9fb1 6f3f 3661 723f
00000170: 6687 783f 51da 803f 4b91 793f 171e 813f
00000180: 1fdd 803f 5a1a 7b3f b32b 783f bc39 753f
00000190: 6dad 833f 19fb 783f 6717 7a3f 4e1a 793f
000001a0: 99f6 7a3f de08 813f 9694 7c3f ff3e 7f3f
000001b0: 966f 743f 7cd6 823f 88ef 7d3f a920 793f
000001c0: 61d4 803f 98ae 803f 152f 793f a6ec 773f
000001d0: 234d 743f 1d72 7e3f 1677 763f 1fd0 7a3f
000001e0: 4cff 783f ab63 6d3f 986c 843f 9f16 7b3f
000001f0: 477d 763f

fingerprints_hidden.1.2.bias f4 [125]
0.0042923996 -0.0032092533 0.023783391 0.0105403485 0.027374974 0.043937463 -0.0036568437 -0.011428273
-0.03286825 0.012462291 -0.031230386 -0.011845614 -0.014148152 0.0085667465 -0.010675245 0.005474165
-0.048093118 -0.032592263 -0.004303491 -0.0119575625 0.012325429 0.01824109 0.0036841987 -0.02080692
0.0328999 -0.009835922 0.008155257 0.053556312 0.024439957 0.012440804 0.021144683 -0.0132115465
-0.007004577 0.0073391413 -0.02572431 -0.026437843 -0.009568695 0.009113473 0.008367923 0.028010523
-0.016977822 0.00847151 -0.0026149524 0.015290294 -0.024395717 -0.0150406975 -0.02642763 -0.05221435
0.010452335 0.029196072 0.025425036 0.02049026 0.008523378 -0.021034036 -0.016404154 -0.023759587
0.015354987 -0.018324863 -0.01958132 0.038905825 -0.01612603 0.0033854041 -0.0066839117 0.010585762
0.003459976 -0.0022335595 0.027121468 -0.023733078 0.025940299 0.02008899 -0.008413341 -0.015719872
0.01705771 -0.00018039517 0.018988246 -0.0022382028 -0.009700673 -0.005269774 0.012457608 0.0057274946
-0.009182246 0.005802642 -0.017042669 0.02019587 -0.03380023 0.0019249504 -0.009964363 -0.008064172
-0.012482171 -0.0028550304 -0.038162738 -0.05149497 -0.00283791 0.025984619 -0.021868637 0.020315679
0.0026119503 -0.012454853 -0.005938074 -0.008355466 0.021849042 0.0041345344 -0.013177496 0.018962145
-0.024686186 0.033584487 -0.0018613327 -0.002688055 -0.005012378 0.012450172 0.01626094 -0.0042039547
0.029996013 0.028050298 0.0029457973 -0.0089415405 -0.033440404 0.037290186 0.011244781 0.013131294
-0.0016066731 -0.02230094 0.024328027 0.012302142 0.01589483
00000000: 42a7 8c3b 5652 52bb 63d5 c23c 6db1 2c3c
00000010: 7b41 e03c c5f7 333d a8a7 6fbb a73d 3bbc
00000020: dca0 06bd a32e 4c3c ded6 ffbc 1b14 42bc
00000030: a7cd 67bc 8a5b 0c3c 39e7 2ebc a060 b33b
00000040: 4afd 44bd 777f 05bd 4d04 8dbb a7e9 43bc
00000050: 99f0 493c 576e 953c 9972 713b 4673 aabc
00000060: 0cc2 063d d926 21bc a19d 053c dd5d 5b3d
00000070: 4e36 c83c 84d4 4b3c 9d37 ad3c 3e75 58bc
00000080: a786 e5bb 2e7d f03b cabb d2bc 2d94 d8bc
00000090: 04c6 1cbc ad50 153c 9d19 093c 5376 e53c
000000a0: 1315 8bbc 17cc 0a3c 9f5f 2bbb 2484 7a3c
000000b0: 87d9 c7bc 426d 76bc c27e d8bc b7de 55bd
000000c0: 4540 2b3c 9a2c ef3c 2a48 d03c 31db a73c
000000d0: a3a5 0b3c 924f acbc 0162 86bc 77a3 c2bc
000000e0: 7c93 7b3c 061e 96bc 0169 a0bc b75b 1f3d
000000f0: bc1a 84bc a8dd 5d3b b704 dbbb e76f 2d3c
00000100: c4c0 623b e960 12bb d72d de3c df6b c2bc
00000110: c080 d43c aa91 a43c 1cd8 09bc f6c6 80bc
00000120: 9cbc 8b3c 7628 3db9 3d8d 9b3c d0ae 12bb
00000130: 92ef 1ebc 11ae acbb ff1a 4c3c b5ad bb3b
00000140: 2271 16bc 1724 be3b 119d 8bbc cf71 a53c
00000150: 1c72 0abd 9e4e fc3a 9141 23bc 971f 04bc
00000160: 0582 4cbc 761b 3bbb 8850 1cbd 64ec 52bd
00000170: 3bfc 39bb b2dd d43c db25 b3bc 116d a63c
00000180: 412d 2b3b 710f 4cbc 2d94 c2bb 5de5 08bc
00000190: c3fc b23c fd7a 873b 6de6 57bc 8056 9b3c
000001a0: af3a cabc e38f 093d f6f7 f3ba 142a 30bb
000001b0: e03e a4bb cefb 4b3c aa35 853c 54c1 89bb
000001c0: 33ba f53c bdc9 e53c 470e 413b 8a7f 12bc
000001d0: cef8 08bd 98bd 183d 083c 383c a424 573c
000001e0: 0197 d2ba 76b0 b6bc 924b c73c ec8e 493c
000001f0: e035 823c

fingerprints_hidden.1.2.running_mean f4 [125]
0.34164816 0.058026426 -0.27239496 -0.07296426 -0.10897573 -0.25777844 -0.17351748 0.009310352
0.22247872 0.07245256 0.4315877 0.3582879 0.2310976 -0.2721142 -0.4806238 -0.072244845
-0.30462077 -0.21709388 0.06029795 -0.39238107 -0.08665942 0.24147002 -0.26087472 -0.38178
0.034603026 0.23774669 -0.38511953 -0.4823427 -0.11306044 0.010931781 -0.12412993 0.24430667
-0.17038813 -0.4454131 0.08334824 0.3663057 -0.34592655 0.1867258 -0.40208742 -0.03293309
-0.087834075 0.18376072 -0.1368824 0.3915639 0.30562073 -0.42957383 -0.3936752 0.39227098
-0.045576394 0.08898676 -0.21306494 -0.23022228 0.2966083 0.049862348 0.22674656 -0.41473567
-0.32923567 -0.06316601 0.25460595 -0.01467734 -0.09400055 0.19833454 0.32714397 0.12488363
0.48809022 -0.21409355 0.33948734 0.12316539 -0.07251444 -0.061204355 -0.18569808 0.1567531
0.12341194 0.19040774 0.1747129 -0.57101655 -0.1232131 0.032557018 0.037675284 0.10792695
-0.055405743 -0.15029459 -0.5819537 -0.14353777 0.092503555 0.42167795 0.3605069 0.07341701
-0.26349032 0.047210902 0.23636456 0.2296021 -0.2916759 -0.32845658 -0.25462082 0.016469762
0.10638638 -0.13788258 0.0065135276 0.36550158 -0.28494462 0.030200286 -0.26960033 -0.30430776
-0.03225259 -0.24007934 -0.056733422 0.53691185 -0.3904823 -0.059906397 -0.009288816 -0.38173798
-0.227018 0.33167654 -0.095655225 0.32478768 -0.0004901972 -0.38513434 0.33880743 -0.049285334
-0.18975283 -0.22717044 -0.02897776 -0.0120789725 -0.08969084
00000000: 82ec ae3e 1ead 6d3d 5a77 8bbe 496e 95bd
00000010: ab2e dfbd 89fb 83be 91ae 31be 728a 183c
00000020: 76d1 633e 0262 943d 10f9 dc3e 8371 b73e
00000030: d9a4 6c3e 8d52 8bbe 5314 f6be 1bf5 93bd
00000040: 41f7 9bbe dc4d 5ebe fcfa 763d 2ce6 c8be
00000050: 7e7a b1bd eb43 773e 5f91 85be ab78 c3be
00000060: e7bb 0d3d de73 733e 632e c5be 9ff5 f6be
00000070: 3b8c e7bd 361b 333c d537 febd 872b 7a3e
00000080: 3a7a 2ebe 300d e4be 7bb2 aa3d 6c8c bb3e
00000090: 491d b1be 0c35 3f3e 67de cdbe d9e4 06bd
000000a0: 5ae2 b3bd c52b 3c3e e62a 0cbe 107b c83e
000000b0: 527a 9c3e 1af1 dbbe cc8f c9be bed7 c83e
000000c0: 50ae 3abd b13e b63d b22d 5abe 64bf 6bbe
000000d0: 0bdd 973e 763c 4c3d 4030 683e 3c58 d4be
000000e0: 9491 a8be 2e5d 81bd b65b 823e 3a79 70bc
000000f0: 5c83 c0bd 3618 4b3e 6a7f a73e fdc2 ff3d
00000100: f6e6 f93e 573b 5bbe 49d1 ad3e 233e fc3d
00000110: 7382 94bd 6bb1 7abd a327 3ebe e283 203e
00000120: 66bf fc3d 3ffa 423e f0e7 323e 242e 12bf
00000130: 2657 fcbd 825a 053d 6651 1a3d ce08 dd3d
00000140: 22f1 62bd d3e6 19be ebfa 14bf 91fb 12be
00000150: 8172 bd3d 2ce6 d73e 5c94 b83e a85b 963d
00000160: 34e8 86be 3860 413d 8d09 723e d01c 6b3e
00000170: 8b56 95be 762b a8be a95d 82be 98eb 863c
00000180: 1ae1 d93d 1731 0dbe 6e6f d53b 0623 bb3e
00000190: 43e4 91be 9766 f73c 0e09 8abe 3ace 9bbe
000001a0: 4b1b 04bd 5cd7 75be 4e61 68bd 0e73 093f
000001b0: 4ced c7be 6960 75bd 1e30 18bc 2973 c3be
000001c0: 6877 68be 82d1 a93e e3e6 c3bd 924a a63e
000001d0: 9480 00ba 5430 c5be 2b78 ad3e 6bdf 49bd
000001e0: 914e 42be 5e9f 68be c462 edbc e2e6 45bc
000001f0: d5af b7bd

fingerprints_hidden.1.2.running_var f4 [125]
0.29497147 0.22331163 0.21281178 0.28870475 0.26432765 0.2544232 0.1694531 0.24262533
0.18826453 0.16414808 0.24023105 0.18284364 0.35218677 0.22867593 0.25703362 0.2199588
0.24936244 0.17590307 0.29759288 0.28738803 0.2538565 0.29359767 0.3019392 0.26462746
0.1731452 0.28589776 0.29789078 0.35274246 0.27329057 0.272374 0.26003528 0.29100567
0.22002126 0.2727213 0.17595172 0.18158846 0.29023337 0.26870695 0.30087113 0.27470148
0.19571829 0.29277182 0.16600566 0.22702347 0.31426454 0.37649697 0.278294 0.2762748
0.17446582 0.29519206 0.24510075 0.26637864 0.28355303 0.24723697 0.22212334 0.27682832
0.24970052 0.24103682 0.26755163 0.2927792 0.3159034 0.18170774 0.21301156 0.25254786
0.18275854 0.3088846 0.29778314 0.21408306 0.32154566 0.23081613 0.33047417 0.29075816
0.24046397 0.21217884 0.26211262 0.27377322 0.2268559 0.3062637 0.31535104 0.2568614
0.25184715 0.20788598 0.27056542 0.19832829 0.23556654 0.227591 0.3231306 0.31985107
0.26345232 0.21709284 0.20840652 0.36657557 0.28025904 0.27091607 0.16683732 0.26527727
0.25198263 0.24927048 0.20076856 0.23576364 0.23613228 0.27438954 0.29156145 0.27214184
0.1951626 0.18939157 0.2727749 0.3049376 0.23812468 0.25309935 0.31952992 0.24939495
0.25945944 0.2790324 0.1985785 0.27892068 0.20178671 0.37104928 0.285616 0.27792808
0.18092681 0.22972466 0.28751522 0.27841142 0.29849142
00000000: 8006 973e ceab 643e 55eb 593e 1cd1 933e
00000010: f455 873e c243 823e 1d85 2d3e c672 783e
00000020: 6bc8 403e 6f16 283e 21ff 753e 5d3b 3b3e
00000030: d351 b43e 062a 6a3e e999 833e e13c 613e
00000040: de58 7f3e ef1f 343e 185e 983e 8624 933e
00000050: 7bf9 813e 6f52 963e c697 9a3e 407d 873e
00000060: fa4c 313e 3161 923e 2485 983e a99a b43e
00000070: beec 8b3e 9b74 8b3e 5823 853e b2fe 943e
00000080: 414d 613e 20a2 8b3e b02c 343e 53f2 393e
00000090: 7899 943e f593 893e c80b 9a3e aca5 8c3e
000000a0: 606a 483e 30e6 953e 63fd 293e d778 683e
000000b0: 48e7 a03e 36c4 c03e 8d7c 8e3e e473 8d3e
000000c0: 2ba7 323e 6a23 973e b1fb 7a3e c862 883e
000000d0: dd2d 913e b02b 7d3e 4d74 633e 71bc 8d3e
000000e0: 7eb1 7f3e 5bd2 763e 87fc 883e 28e7 953e
000000f0: 17be a13e 9811 3a3e b41f 5a3e f44d 813e
00000100: 0e25 3b3e 1f26 9e3e 0877 983e 9738 5b3e
00000110: a2a1 a43e 105b 6c3e e933 a93e 41de 943e
00000120: 303c 763e 6945 593e a033 863e 012c 8c3e
00000130: ea4c 683e 98ce 9c3e b175 a13e 5683 833e
00000140: 1cf2 803e 10e0 543e 8d87 8a3e 9216 4b3e
00000150: 5b38 713e 9d0d 693e 6071 a53e 85c3 a33e
00000160: 39e3 863e 964d 5e3e 8568 553e cbaf bb3e
00000170: 1d7e 8f3e 83b5 8a3e 67d7 2a3e 6cd2 873e
00000180: de03 813e c340 7f3e 4696 4d3e 066c 713e
00000190: a9cc 713e c97c 8c3e 8b47 953e 2d56 8b3e
000001a0: b4d8 473e ddef 413e 27a9 8b3e c820 9c3e
000001b0: f5d6 733e 3d96 813e 6d99 a33e 6461 7f3e
000001c0: ded7 843e 56dd 8e3e 2a58 4b3e b1ce 8e3e
000001d0: 2da1 4e3e 2cfa bd3e 433c 923e 974c 8e3e
000001e0: e144 393e f13c 6b3e 3235 933e f18b 8e3e
000001f0: ded3 983e

fingerprints_hidden.2.1.weight f4 [125, 125]
0.069907635 -0.0627985 0.036708113 0.00954913 -0.017204959 -0.061466917 0.069920234 0.054411583
0.032124758 -0.06555853 0.03599526 0.14019947 -0.05490177 0.080463566 -0.034848526 0.008354354
-0.0034385682 0.03736043 0.044586696 0.054138254 -0.008200297 -0.0500278 -0.0790675 0.07682102
-0.009184583 0.055525895 0.03078711 0.04393648 -0.0007835301 -0.01406116 0.039455608 0.06125586
0.035126265 -0.033557482 0.05474975 0.040764187 -0.06724056 -0.09078136 0.014283735 -0.072851755
0.013767147 -0.04253333 0.06121823 0.030103277 0.035478763 -0.01717474 -0.021064878 0.050490458
-0.06117948 0.061991256 -0.009971861 -0.0023628066 0.008256077 0.07832599 0.09701492 -0.09297826
0.014536683 -0.07198932 -0.08338615 0.019388458 -0.041611176 -0.09932834 0.052052423 -0.05308648
0.0893434 0.022836355 -0.033671346 -0.048461664 0.014036246 -0.057370637 0.04823464 0.03577829
-0.09095329 -0.087512776 0.072786875 0.014037526 -0.009161407 -0.052016728 -0.11460738 0.03196376
0.019188581 0.017093016 0.039777584 -0.044421237 0.026508136 0.010832643 -0.03010959 -0.007863338
0.064104535 0.06932472 0.059174143 0.082003705 0.021211997 0.0931301 0.073166385 -0.010426999
-0.08488655 -0.09283546 -2.4423542e-05 -0.09429043 0.050256666 -0.012272798 0.059352163 0.011308044
0.011604264 0.014351875 0.032296102 0.032865774 0.039802607 0.05234758 -0.036562927 0.06080392
0.08114631 0.02684539 0.01794169 -0.061014462 0.05351122 -0.08135687 0.014360294 -0.017378999
0.028418045 0.06008247 -0.006083608 -0.07747549 -0.026793368 -0.016918046 -0.034948267 0.031852722
-0.027203497 -0.11183464 -0.07134599 -0.064434744 -0.07656872 -0.014120856 -0.062234562 -0.019015506
-0.023145497 0.063727304 0.022962535 0.0664181 -0.07921039 -0.053737048 -0.02076471 -0.07049354
-0.052316718 -0.01585438 -0.023937799 0.028872626 -0.044117127 0.014058758 -0.0114317 -0.04023697
-0.08730666 0.06331797 -0.078369536 0.018029766 0.017577203 0.07688658 0.026945481 0.024497781
0.059806895 0.058095 0.054275468 0.024927747 -0.043011118 -0.04631563 -0.0197235 -0.0861956
-0.008065234 -0.013666325 -0.04060999 -0.019340096 0.061647873 -0.062073305 -0.048068434 -0.10656347
-0.049435038 -0.08639344 -0.096292116 -0.014121372 -0.049260404 -0.018079525 -0.045028973 -0.08101999
-0.059694752 -0.046685494 0.0939972 0.042334028 -0.082009636 -0.06248675 0.06163603 -0.04923955
0.0013090658 0.035532553 0.00867773 0.0112204775 0.07297342 -0.07016586 -0.041035295 -0.016030643
0.046749666 -0.0833126 0.076510556 -0.05705995 0.047797646 -0.01403442 -0.027399551 0.034133025
0.009722556 -0.055217985 -0.092819475 0.025079593 -0.08647772 -0.06442453 0.030797292 -0.015987003
-0.017620133 0.09046476 -0.069684066 -0.092118405 -0.045252107 0.053940646 -0.04381751 -0.01343507
-0.050841343 0.052867647 0.026689487 -0.030377585 0.07386065 0.014027614 -0.013419086 0.06622696
-0.0086394 0.057711896 -0.075568795 0.030628271 -0.054420184 0.025123192 -0.045019887 -0.031497262
0.01358007 0.06245064 -0.08102042 0.077347025 -0.049340766 -0.0342338 0.034068413 -0.066940084
-0.030781433 0.09025226 -0.055275064 -0.07577243 -0.083231345 -0.051795784 -0.077558696 -0.056976367
00000000: bc2b 8f3d 809c 80bd 3f5b 163d f473 1c3c
00000010: 6af1 8cbc bcc4 7bbd 5732 8f3d aede 5e3d
00000020: 4095 033d 8d43 86bd c46f 133d 7390 0f3e
00000030: aee0 60bd 15ca a43d 54bd 0ebd b3e0 083c
00000040: 9a59 61bb 4007 193d 8aa0 363d 13c0 5d3d
00000050: 8a5a 06bc f3e9 4cbd 24ee a1bd 5754 9d3d
00000060: ef7a 16bc 1f6f 633d 4035 fc3c bdf6 333d
00000070: d165 4dba c860 66bc 349c 213d 6de7 7a3d
00000080: 8fe0 0f3d 9273 09bd 4641 603d 59f8 263d
00000090: 6bb5 89bd 94eb b9bd 5406 6a3c 4d33 95bd
000000a0: 9a8f 613c 6e37 2ebd f7bf 7a3d 269b f63c
000000b0: 2e52 113d 0ab2 8cbc 4090 acbc 15cf 4e3d
000000c0: 5697 7abd 8bea 7d3d 0461 23bc 51d9 1abb
000000d0: 7f44 073c 6069 a03d c2af c63d 636b bebd
000000e0: 452b 6e3c 236f 93bd 5cc6 aabd 8bd4 9e3c
000000f0: 7b70 2abd a86c cbbd ec34 553d 3571 59bd
00000100: acf9 b63d 4f13 bb3c f7ea 09bd bd7f 46bd
00000110: 48f8 653c 79fd 6abd b091 453d 428c 123d
00000120: b845 babd e639 b3bd 4911 953d a7fd 653c
00000130: ba19 16bc 7e0f 55bd 46b7 eabd 6eec 023d
00000140: 5f31 9d3c a706 8c3c d2ed 223d 0bf3 35bd
00000150: 9727 d93c 667b 313c 63a8 f6bc 3bd5 00bc
00000160: 3d49 833d 1efa 8d3d 9660 723d 8ff1 a73d
00000170: c8c4 ad3c feba be3d 42d8 953d 01d6 2abc
00000180: 00d9 adbd 8520 bebd 28e1 ccb7 571b c1bd
00000190: efd9 4d3d d913 49bc 411b 733d 6045 393c
000001a0: d01f 3e3c 2024 6b3c eb48 043d 439e 063d
000001b0: 0f08 233d 6b6a 563d 02c3 15bd 880d 793d
000001c0: 0930 a63d ddea db3c 73fa 923c 4dea 79bd
000001d0: 952e 5b3d 6e9e a6bd 7047 6b3c 675e 8ebc
000001e0: f6cc e83c 0919 763d 0159 c7bb 78ab 9ebd
000001f0: c47d dbbc b797 8abc ea25 0fbd 0078 023d
00000200: ded9 debc 8f09 e5bd d91d 92bd 5df6 83bd
00000210: 10d0 9cbd 2a5b 67bc abe9 7ebd 68c6 9bbc
00000220: a09b bdbc 7683 823d ed1b bc3c 3606 883d
00000230: 0f39 a2bd 611b 5cbd c11a aabc eb5e 90bd
00000240: 0e4a 56bd 0be1 81bc 3419 c4bc 4986 ec3c
00000250: 29b4 34bd b456 663c 064c 3bbc 85cf 24bd
00000260: d6cd b2bd daac 813d 3580 a0bd 29b3 933c
00000270: 11fe 8f3c b676 9d3d c5bc dc3c 92af c83c
00000280: 13f8 743d 06f5 6d3d f44f 5e3d 4635 cc3c
00000290: 6d2c 30bd 75b5 3dbd 2d93 a1bc 5287 b0bd
000002a0: 0b24 04bc b9e8 5fbc a956 26bd 1f6f 9ebc
000002b0: 7b82 7c3d 9440 7ebd 68e3 44bd f33d dabd
000002c0: 657c 4abd 0bef b0bd cd34 c5bd 545d 67bc
000002d0: 47c5 49bd 831b 94bc 4d70 38bd cfed a5bd
000002e0: 7c82 74bd 4a39 3fbd 9b81 c03d 7266 2d3d
000002f0: abf4 a7bd 1bf2 7fbd 1076 7c3d 69af 49bd
00000300: f694 ab3a 958a 113d 0a2d 0e3c 18d6 373c
00000310: 1773 953d 1eb3 8fbd a014 28bd b252 83bc
00000320: 947c 3f3d cc9f aabd 91b1 9c3d b2b7 69bd
00000330: 77c7 433d a0f0 65bc 0675 e0bc 12cf 0b3d
00000340: 5b4b 1f3c 412c 62bd 2318 bebd b873 cd3c
00000350: 3b1b b1bd 02f1 83bd 9a4a fc3c 2df7 82bc
00000360: 1958 90bc 9745 b93d 85b6 8ebd 93a8 bcbd
00000370: 465a 39bd def0 5c3d fd79 33bd c51e 5cbc
00000380: 033f 50bd bf8b 583d e9a3 da3c 6ada f8bc
00000390: 4144 973d 14d4 653c badb 5bbc 00a2 873d
000003a0: 458c 0dbc 4f63 6c3d d0c3 9abd 24e8 fa3c
000003b0: b3e7 5ebd 27cf cd3c c666 38bd 4603 01bd
000003c0: f17e 5e3c 3ecc 7f3d 09ee a5bd 1e68 9e3d
000003d0: 8b19 4abd be38 0cbd 528b 0b3d e217 89bd
000003e0: 5829 fcbc 2dd6 b83d 1b68 62bd 932e 9bbd
000003f0: 3275 aabd d127 54bd 18d7 9ebd 0d60 69bd
