fold_save/4_56_5_133_3.65_2.22.pth (torch, 931127 bytes, 38 tensors)

fingerprints_hidden.0.1.weight f4 [133, 1024]
0.016021566 0.012816466 -0.028432043 -0.02577775 0.027120579 0.02208708 0.0029016219 0.014529468
0.028768372 0.012834001 0.030339912 0.022351667 -0.001068336 0.022785012 -0.024126483 0.0144230705
-0.0006920833 -0.013396072 0.010612207 -0.013569498 0.014239623 0.02365918 0.01423132 -0.02766419
-0.014395446 -0.00018713974 0.02613203 -0.027305622 0.024161516 0.0252431 0.0027168207 -0.015443805
-0.008114558 -0.006037613 0.03127519 0.020361908 -0.010999573 0.021407103 0.010111349 -0.02540665
-0.023046609 -0.01256127 -0.00953728 -0.012385879 -0.00084975595 0.016089588 0.029732473 -0.0059722085
0.019243421 0.0059761433 0.0055345385 0.004663024 -0.011752441 -0.0035750603 0.022831276 -0.014222234
-0.0039298553 0.007149392 0.012953768 -0.0003047817 -0.0065676738 0.006276541 7.4784904e-05 -0.024054613
0.0076370155 -0.01488617 0.0018659107 -0.02105132 -0.008707294 0.022836056 -0.0068373657 -0.011593325
0.008197864 0.021171628 -0.004889519 0.010175324 -0.014680729 -0.03039483 -9.728447e-05 0.012045359
0.005535141 0.0046087424 -0.0039412975 -0.0060498067 0.026721813 -0.0069658733 0.024054108 0.0321333
-0.024787739 -0.015541279 0.00431435 0.00788585 -0.017336393 -0.015047886 0.000945046 0.032841846
-0.010925029 0.019485012 0.014532156 0.016963692 -0.006813919 0.0050869007 0.003774443 0.004924671
0.016363082 -0.019201277 0.0064489786 0.025265379 0.019812837 0.0016191008 0.009490132 -0.0006198271
-0.027501985 -0.01686393 0.013577683 -0.027777195 0.028639905 -0.029029528 -0.014043726 -0.0052533024
-0.006085566 -0.014485473 -0.026689325 -0.015696976 -0.005671531 0.011256254 0.022598254 0.022439022
0.024077002 0.023141323 -0.0008311135 0.0014836018 -0.010067443 -0.010990392 -0.016816994 -0.010098947
0.009184794 0.03111165 0.007771716 -0.010731838 0.008198948 0.0029024882 0.000688705 -0.008906984
0.025581375 0.007870359 -0.0090666665 -0.00063156924 -0.019896943 -0.012919065 -0.015660523 0.0046791225
0.011969193 -0.023339095 0.018889762 -0.029011065 -0.010649598 0.01754568 0.014730783 0.002287377
-0.025035394 -0.020137101 -0.01366142 -0.007591132 0.009157914 -0.018876685 -0.014800812 0.00038719547
-0.01910759 -0.008975393 0.0033680396 -0.030423706 -0.0028704188 0.00049002125 0.026226899 0.028357167
0.028772406 0.00093139854 -9.276549e-05 -0.00027388093 -0.019266276 0.023652283 -0.008023662 0.024128437
-0.02575817 0.0007970714 0.0054675797 -0.020560166 -0.0023367703 -0.0128155 0.0005780241 -0.017216621
-0.017733304 0.015733352 -0.024388973 0.0062069106 -0.0143954 -0.0022818584 0.0122379325 0.012282325
0.02932804 0.027160225 -0.0012223114 -0.0020323526 0.012303314 -0.0024132193 0.020674001 -0.008688474
-0.010832208 0.015816908 0.0068231053 0.02753999 0.0023684155 -0.01207316 0.0061346935 0.009824329
0.024168592 -0.016508548 0.02533483 0.004857313 -0.014588555 -0.025348645 0.0039131143 -0.0066721616
0.019629141 0.0026881478 -0.017361728 -0.025197621 0.026355943 0.018574616 0.00558131 -0.028618025
-0.006711685 -0.0006341945 0.005696599 0.009700503 -0.02410919 0.013845697 0.010281739 0.026571114
-0.029328901 -0.0037750038 -0.032359976 0.0053635463 0.023351317 0.016597817 0.02656282 0.021393616
0.011938847 0.014054508 -0.013027542 0.017300732 -0.018332966 -0.022479823 -0.000115710776 0.022884032
00000000: a93f 833c 28fc 513c 51ea e8bc dc2b d3bc
00000010: fa2b de3c f7ef b43c 2329 3e3b 010d 6e3c
00000020: a6ab eb3c b445 523c 688b f83c d81a b73c
00000030: 6807 8cba a2a7 ba3c e7a4 c5bc be4e 6c3c
00000040: ed6c 35ba 337b 5bbc d3de 2d3c 9a52 5ebc
00000050: 4f4d 693c e6d0 c13c 7b2a 693c 03a0 e2bc
00000060: e0da 6bbc f13a 44b9 d712 d63c 0ab0 dfbc
00000070: 5fee c53c 9eca ce3c b00c 323b 0308 7dbc
00000080: ecf2 04bc 2bd7 c5bb 6a1a 003d 04ce a63c
00000090: 8e37 34bc f35d af3c 12aa 253c 9b21 d0bc
000000a0: 3ecc bcbc c9cd 4dbc 4042 1cbc 24ee 4abc
000000b0: 28c2 5eba 50ce 833c 8491 f33c 84b2 c3bb
000000c0: 61a4 9d3c 86d3 c33b 135b b53b 48cc 983b
000000d0: 4f8d 40bc 8f4b 6abb a808 bb3c 5f04 69bc
000000e0: 04c6 80bb 7245 ea3b 0a3c 543c 1bcb 9fb9
000000f0: a435 d7bb 71ab cd3b d7d5 9c38 2e0e c5bc
00000100: ee3f fa3b 1fe5 73bc 9391 f43a d173 acbc
00000110: 0aa9 0ebc ae12 bb3c fb0b e0bb eef1 3dbc
00000120: 5550 063c 1f70 ad3c 4238 a0bb 67b6 263c
00000130: 7187 70bc 94fe f8bc 3405 ccb8 e659 453c
00000140: 2160 b53b ef04 973b 0026 81bb 753d c6bb
00000150: b4e7 da3c fb41 e4bb 1f0d c53c 359e 033d
00000160: a80f cbbc d9a0 7ebc 645f 8d3b a733 013c
00000170: 0d05 8ebc 698b 76bc f7bc 773a 2c85 063d
00000180: e5fe 32bc 089f 9f3c 4818 6e3c 71f7 8a3c
00000190: 4c47 dfbb 04b0 a63b a55c 773b 225f a13b
000001a0: df0b 863c ff4b 9dbc f451 d33b 57f9 ce3c
000001b0: 884e a23c 0238 d43a 807c 1b3c e47b 22ba
000001c0: d84b e1bc 3926 8abc ee74 5e3c 008d e3bc
000001d0: 3c9e ea3c 55cf edbc a817 66bc e523 acbb
000001e0: 6d69 c7bb 7a54 6dbc 92a3 dabc f296 80bc
000001f0: 40d8 b9bb 276c 383c f91f b93c 0ad2 b73c
00000200: 223d c53c df92 bd3c 15df 59ba 6a75 c23a
00000210: ebf1 24bc 0c11 34bc cbc3 89bc 0e76 25bc
00000220: d17b 163c dcdd fe3c e1a9 fe3b 97d4 2fbc
00000230: e154 063c ac37 3e3b 368a 343a 99ee 11bc
00000240: 0890 d13c aef2 003c 5b8c 14bc e58f 25ba
00000250: eafe a2bc 7caa 53bc 7f4a 80bc 5353 993b
00000260: 6f1a 443c a131 bfbc b4be 9a3c 9da8 edbc
00000270: a77b 2ebc f5bb 8f3c 6259 713c d1e7 153b
00000280: 0717 cdbc 90f6 a4bc 26d4 5fbc 08bf f8bb
00000290: 130b 163c 47a3 9abc 1b7f 72bc 7f00 cb39
000002a0: 8587 9cbc 870d 13bc 54ba 5c3b 233b f9bc
000002b0: a31d 3cbb c574 003a cbd9 d63c 4a4d e83c
000002c0: 1cb4 eb3c 1929 743a 188b c2b8 ad97 8fb9
000002d0: 4fd4 9dbc 6fc2 c13c ad75 03bc 00a9 c53c
000002e0: cc02 d3bc 8ef2 503a 6229 b33b cb6d a8bc
000002f0: 8024 19bb 1af8 51bc 8a86 173a df09 8dbc
00000300: 6f45 91bc 3be3 803c 62cb c7bc 5763 cb3b
00000310: afda 6bbc 3b8b 15bb 9c81 483c ce3b 493c
00000320: 5c41 f03c 1f7f de3c f735 a0ba 3831 05bb
00000330: d793 493c 1a27 1ebb 865c a93c 1a5a 0ebc
00000340: 9379 31bc 7692 813c 5b94 df3b 8c9b e13c
00000350: 6b37 1b3b 81ce 45bc 8a05 c93b 39f6 203c
00000360: 36fd c53c ef3c 87bc fd8a cf3c 182a 9f3b
00000370: d604 6fbc f6a7 cfbc 9539 803b 26a2 dabb
00000380: 4bcd a03c a32b 303b 2f3a 8ebc 3e6b cebc
00000390: 6be8 d73c cb29 983c 6ce3 b63b 5970 eabc
000003a0: b2ed dbbb 1340 26ba 89aa ba3b dcee 1e3c
000003b0: a380 c5bc 10d9 623c bd74 283c aaab d93c
000003c0: 2a43 f0bc 0e66 77bb e58b 04bd b0c0 af3b
000003d0: 434b bf3c 25f8 873c 459a d93c aa41 af3c
000003e0: 279b 433c e144 663c 7971 55bc 44ba 8d3c
000003f0: 042f 96bc 9b27 b8bc c0a9 f2b8 4b77 bb3c

fingerprints_hidden.0.1.bias f4 [133]
-0.00016289635 -6.570388e-05 0.011905985 -0.004616618 -0.0003841586 0.004912642 0.01854845 0.011306811
0.0031044977 -0.00030540675 0.01257533 -0.0014150449 -0.0001133465 -0.014804229 0.019301575 -0.012092004
-0.00037263002 0.007026812 -0.00018726024 0.00020410208 -0.010912117 -0.013916988 0.008251523 0.0038517206
-0.019936513 0.014585837 0.01293695 -3.1164527e-06 0.0003597122 -0.019911937 0.010110976 0.015793672
0.018077737 0.0034004832 -1.4836898e-05 0.00042217257 -0.0050316867 -0.0102107 -0.012577362 0.015275971
0.016924448 -0.00034607103 0.0032552327 -0.0117468415 -0.014496107 0.01994318 0.015968049 0.00032623007
-2.2656006e-05 -0.00039841892 0.015864938 0.019279374 -0.019325506 -0.0032874004 0.009839611 -0.00011296041
-0.017823638 -4.7139147e-06 0.0060737063 0.010931984 1.2151944e-05 -0.009322457 0.002111542 -0.018207412
0.008395469 0.011786876 -4.183269e-05 -0.009447198 -0.012283377 2.1484517e-05 -6.0503926e-06 -0.017878363
-0.004044237 0.018088214 0.0003363956 0.001566303 -0.004923536 -0.00018510937 -3.6490164e-05 -0.0031319307
-0.00678211 2.928282e-06 -0.017251717 -7.487504e-05 -0.010355565 0.0022157442 0.0022663502 0.00024930364
0.00023056906 -7.853753e-05 0.007108465 0.018105844 -0.0068731094 0.01183961 4.1819887e-05 0.016150137
-0.000963935 -0.015652208 -0.016569939 0.010789071 0.00031322372 -0.0066373716 0.017771041 -0.019242339
-0.009771215 0.007873031 -0.005540923 6.970369e-06 -0.000355683 -0.010869486 -0.002754528 -0.002512188
6.543485e-05 0.007195388 -0.007845107 0.0022381975 -0.008001749 0.00082452904 -0.011260931 0.004147986
-0.014845917 8.008313e-05 0.009090015 -0.00019932255 0.009864138 -6.63753e-05 -0.0067031025 -0.019886304
0.0027802212 0.0012320636 0.019722786 0.00038830008 0.017899178
00000000: 28cf 2ab9 81ca 89b8 5211 433c 0047 97bb
00000010: e568 c9b9 3afa a03b ebf2 973c 3440 393c
00000020: d474 4b3b 001f a0b9 c208 4e3c 0779 b9ba
00000030: 70b4 edb8 708d 72bc 561e 9e3c 8a1d 46bc
00000040: 8e5d c3b9 2c41 e63b 4a5b 44b9 3c04 5639
00000050: bcc8 32bc 1404 64bc 6531 073c 266d 7c3b
00000060: e651 a3bc 6ff9 6e3c 80f5 533c 4024 51b6
00000070: c197 bc39 5c1e a3bc 82a8 253c bb61 813c
00000080: c317 943c a4da 5e3b feeb 78b7 0b57 dd39
00000090: d9e0 a4bb c84a 27bc 4811 4ebc 1148 7a3c
000000a0: 24a5 8a3c de70 b5b9 be55 553b d375 40bc
000000b0: 1481 6dbc e15f a33c 6dcf 823c dc09 ab39
000000c0: 670d beb7 e2e2 d0b9 30f7 813c c7ef 9d3c
000000d0: 8650 9ebc 6d71 57bb 5236 213c 29e5 ecb8
000000e0: e102 92bc 382c 9eb6 f105 c73b 101c 333c
000000f0: 34e0 4b37 38bd 18bc cc61 0a3b b627 95bc
00000100: 268d 093c be1d 413c 8275 2fb8 6cc8 1abc
00000110: 3840 49bc a639 b437 7a04 cbb6 a575 92bc
00000120: 8585 84bb bc2d 943c 415e b039 684c cd3a
00000130: 9d55 a1bb eb19 42b9 040d 19b8 1441 4dbb
00000140: 763c debb 8083 4436 7953 8dbc 3b06 9db8
00000150: 63aa 29bc 0536 113b 0c87 143b f8b4 8239
00000160: e9c4 7139 84b4 a4b8 20ee e83b b552 943c
00000170: d237 e1bb ecfa 413c c367 2f38 4b4d 843c
00000180: 95b0 7cba 0f39 80bc aebd 87bc a5c4 303c
00000190: 2d38 a439 4f7e d9bb 9394 913c 1ca2 9dbc
000001a0: 7217 20bc e3fd 003c a290 b5bb 04e3 e936
000001b0: f77a bab9 ee15 32bc 5085 34bb 85a3 24bb
000001c0: 113a 8938 4ac7 eb3b c388 00bc b9ae 123b
000001d0: c519 03bc 3525 583a c57f 38bc d4eb 873b
000001e0: 4a3c 73bc 4ef2 a738 49ee 143c 3d01 51b9
000001f0: 329d 213c f832 8bb8 b3a5 dbbb 9ae8 a2bc
00000200: 5f34 363b 327d a13a ae91 a13c c194 cb39
00000210: 4ca1 923c

fingerprints_hidden.0.2.weight f4 [133]
0.98896164 0.98853123 0.98863417 0.9892649 0.98858154 0.9886151 0.98901224 0.9882651
0.9885676 0.989201 0.9894052 0.9886734 0.9890192 0.98856467 0.9893352 0.9889186
0.9888797 0.98879427 0.98908544 0.98855126 0.9891083 0.9884851 0.98867804 0.9886273
0.9888876 0.98897856 0.9888649 0.98899025 0.98895097 0.9887481 0.98892707 0.9892935
0.9887186 0.9889722 0.98843205 0.98849994 0.9882578 0.98899347 0.9886161 0.9890955
0.98895466 0.9888763 0.98890346 0.9889574 0.9887233 0.98888046 0.9890577 0.9887238
0.9886812 0.9885755 0.988201 0.9889096 0.9889386 0.98915833 0.9886926 0.9888877
0.9888199 0.9889086 0.98926073 0.9890559 0.98848164 0.9887093 0.98855406 0.9891978
0.9888874 0.98880774 0.9889956 0.98860013 0.9888713 0.988567 0.98854285 0.98898
0.9889402 0.98845774 0.9886749 0.9889238 0.9886822 0.9887305 0.9888776 0.988985
0.9886247 0.9888546 0.98883337 0.98908734 0.9884226 0.9888291 0.9888623 0.98881906
0.98905754 0.9887655 0.9889316 0.9890772 0.989068 0.9887768 0.9887719 0.9886663
0.98879576 0.98889405 0.9889974 0.9890872 0.98927665 0.988726 0.98858374 0.9887626
0.9889486 0.98829275 0.98887545 0.9885954 0.9891385 0.98861927 0.98890775 0.98880684
0.9889105 0.9886451 0.9885135 0.98929375 0.98836076 0.9890399 0.9887659 0.9887433
0.98903793 0.98880136 0.98866814 0.98885155 0.9888736 0.9886969 0.9889777 0.98888206
0.9886003 0.9889273 0.98902667 0.98901856 0.98846763
00000000: 972c 7d3f 6210 7d3f 2117 7d3f 7740 7d3f
00000010: ae13 7d3f e115 7d3f e82f 7d3f f1fe 7c3f
00000020: c412 7d3f 473c 7d3f a949 7d3f b319 7d3f
00000030: 5d30 7d3f 9312 7d3f 1245 7d3f c529 7d3f
00000040: 3827 7d3f 9f21 7d3f b434 7d3f b211 7d3f
00000050: 3436 7d3f 5c0d 7d3f 011a 7d3f ae16 7d3f
00000060: bd27 7d3f b32d 7d3f 4026 7d3f 772e 7d3f
00000070: e42b 7d3f 981e 7d3f 532a 7d3f 5742 7d3f
00000080: aa1c 7d3f 482d 7d3f e209 7d3f 550e 7d3f
00000090: 77fe 7c3f ad2e 7d3f f215 7d3f 5d35 7d3f
000000a0: 222c 7d3f ff26 7d3f c728 7d3f 502c 7d3f
000000b0: f81c 7d3f 4527 7d3f e332 7d3f 011d 7d3f
000000c0: 361a 7d3f 4913 7d3f befa 7c3f 2e29 7d3f
000000d0: 152b 7d3f 7b39 7d3f f51a 7d3f bf27 7d3f
000000e0: 4d23 7d3f 1d29 7d3f 3140 7d3f c432 7d3f
000000f0: 220d 7d3f 0d1c 7d3f e111 7d3f 113c 7d3f
00000100: ba27 7d3f 8122 7d3f d12e 7d3f e614 7d3f
00000110: ab26 7d3f ba12 7d3f 2511 7d3f cb2d 7d3f
00000120: 2f2b 7d3f 910b 7d3f cc19 7d3f 1c2a 7d3f
00000130: 471a 7d3f 711d 7d3f 1527 7d3f 1f2e 7d3f
00000140: 8216 7d3f 9325 7d3f 2f24 7d3f d434 7d3f
00000150: 4309 7d3f e723 7d3f 1426 7d3f 3f23 7d3f
00000160: e032 7d3f bc1f 7d3f 9f2a 7d3f 2a34 7d3f
00000170: 8f33 7d3f 7a20 7d3f 2820 7d3f 3c19 7d3f
00000180: b821 7d3f 2928 7d3f ef2e 7d3f d234 7d3f
00000190: 3c41 7d3f 261d 7d3f d313 7d3f 8c1f 7d3f
000001a0: bc2b 7d3f c100 7d3f f126 7d3f 9714 7d3f
000001b0: 2e38 7d3f 2716 7d3f 0f29 7d3f 7222 7d3f
000001c0: 3d29 7d3f d817 7d3f 390f 7d3f 5b42 7d3f
000001d0: 3605 7d3f b831 7d3f c31f 7d3f 481e 7d3f
000001e0: 9731 7d3f 1622 7d3f 5b19 7d3f 6025 7d3f
000001f0: d226 7d3f 3d1b 7d3f a42d 7d3f 6027 7d3f
00000200: e914 7d3f 572a 7d3f da30 7d3f 5230 7d3f
00000210: 370c 7d3f

fingerprints_hidden.0.2.bias f4 [133]
-0.0017568823 0.00045416824 -0.0005806024 -0.00015595414 -0.00024667653 0.0011609178 0.0016730276 0.0012286006
0.0036846034 -0.0019358781 -0.0005602723 0.0004961909 -0.00023357008 0.0014540561 -0.0016854744 -0.0028816396
-0.0012567028 0.00017499388 0.0026361865 -0.0018694904 0.0005642694 0.0017045928 -0.0027256946 0.00014401256
-0.0009702419 -0.00065880246 -0.0015021107 0.0006641858 0.0017213721 -0.0019206399 0.0012931138 -0.0012671995
-0.0010003643 0.00036835103 0.0018985552 0.0019159795 0.00027437683 0.0007131885 0.00048632617 -4.006559e-05
-0.0007933796 0.0002483377 -0.000774333 -0.0016480746 0.000765424 -0.0014090053 -0.0026813124 0.0015971609
0.0011729426 -0.00044905118 -0.0008587906 -0.00020646307 0.0016730654 -0.00044502562 -0.00030273717 -0.00041136052
0.0020421848 -0.00031794363 -0.0016698698 -0.0007693671 0.0018286495 0.0015402265 -0.0037280032 0.002949178
-0.0044413027 0.0018638535 -0.0035302695 9.23708e-05 -0.00250101 0.0033915264 -0.0022939867 0.0014799538
-0.001807566 -0.0011516289 -0.0014681991 -0.001998555 0.0018930886 0.0028523963 -0.0014577908 0.0017423299
0.0006618268 0.0009547107 -0.0006128455 -0.0027152135 0.00046014017 0.0036960582 0.00021650323 0.0018074443
0.002252053 -0.0021901964 -0.0019894768 -0.00032144683 -0.0006304622 0.0015918304 0.00034843158 0.0014213761
-0.0022737973 0.0013375041 -0.0008213007 -0.0012186693 -0.0023524298 0.003676515 -0.0007112135 -0.00054521416
0.0007665958 0.002833644 -0.0012554426 -0.00040507864 0.0004594562 0.0039748424 0.0015792837 -0.0033803303
-0.0027864242 -1.3022724e-05 0.0030324413 -0.00430592 -0.0002049794 0.0013788117 -0.0012953634 0.001148075
0.0015040542 0.001579542 0.0009760817 0.0040312135 -0.001473364 -7.8272715e-05 -0.0014056321 5.3222975e-06
-0.00044449512 -0.00012033613 -0.00032842337 -0.0013156345 -0.0026818065
00000000: 3047 e6ba 6e1d ee39 9133 18ba 9f87 23b9
00000010: 5d54 81b9 f029 983a 7e49 db3a ff08 a13a
00000020: 6379 713b 4abd fdba 3ddf 12ba cf12 023a
00000030: 7eea 74b9 0796 be3a 23eb dcba e4d9 3cbb
00000040: f3b7 a4ba 907e 3739 dfc3 2c3b b009 f5ba
00000050: 7aeb 133a a56c df3a 91a1 32bb 1402 1739
00000060: d557 7eba 7cb3 2cba 79e2 c4ba c11c 2e3a
00000070: aa9f e13a fbbd fbba b37d a93a 2918 a6ba
00000080: a81e 83ba 3d1f c139 f1d8 f83a 9b21 fb3a
00000090: 3cda 8f39 45f5 3a3a 98f9 fe39 1a0c 28b8
000000a0: cefa 4fba 5233 8239 9cfc 4aba 3504 d8ba
000000b0: bca6 483a 5fae b8ba f5b8 2fbb d457 d13a
000000c0: 6cbd 993a a16e ebb9 7620 61ba 027e 58b9
000000d0: c24a db3a 5452 e9b9 b2b8 9eb9 e0ab d7b9
000000e0: 2dd6 053b acb1 a6b9 88df daba 5aaf 49ba
000000f0: 4caf ef3a 6de1 c93a 8451 74bb ff46 413b
00000100: 5988 91bb 8c4c f43a 185c 67bb 32b7 c138
00000110: fce7 23bb 5f44 5e3b b656 16bb 02fb c13a
00000120: daeb ecba 41f2 96ba 9670 c0ba 30fa 02bb
00000130: 8321 f83a 45ef 3a3b 5813 bfba e45e e43a
00000140: 727e 2d3a 8d45 7a3a 5ea7 20ba b9f1 31bb
00000150: f83e f139 9139 723b 2505 6339 c4e7 ec3a
00000160: 2e97 133b 6689 0fbb e261 02bb dd87 a8b9
00000170: 9a45 25ba f7a4 d03a b2ad b639 784d ba3a
00000180: fd03 15bb 314f af3a 8f4c 57ba c2bb 9fba
00000190: 392b 1abb b0f1 703b bb70 3aba b4ec 0eba
000001a0: 60f5 483a a8b4 393b aa8d a4ba bc60 d4b9
000001b0: 2be3 f039 653f 823b f8ff ce3a 8888 5dbb
000001c0: 719c 36bb 2c7c 5ab7 ecbb 463b ad18 8dbb
000001d0: bdef 56b9 3eb9 b43a 2fc9 a9ba 017b 963a
000001e0: af23 c53a a208 cf3a bcdf 7f3a 4518 843b
000001f0: e41d c1ba 5826 a4b8 303d b8ba 3096 b236
00000200: 200b e9b9 f85c fcb8 3d30 acb9 5e71 acba
00000210: 3fc1 2fbb

fingerprints_hidden.0.2.running_mean f4 [133]
0.10844262 -0.019649763 0.012888425 -0.070191264 0.24391235 -0.105958164 0.24118891 -0.025845256
0.06081405 -0.20640387 -0.023611268 0.0069869705 0.031503603 -0.25443864 0.16077068 0.009657342
0.09154284 0.02391757 0.009210797 -0.012458332 -0.02249643 0.10949022 0.07241535 0.011254499
-0.020135976 -0.030274589 -0.07421648 -0.063529305 -0.17274874 0.006102726 -0.025092436 0.0027845367
0.17128581 0.060063608 0.069593325 -0.03949569 0.05231596 0.008729057 0.14728743 0.22084019
-0.0859739 0.008915189 -0.16995081 -0.14431825 0.020417595 0.06579603 0.0928806 -0.12550032
0.017462445 0.04581064 0.025617354 -0.04403368 -0.019179096 0.011390362 0.030217202 0.026585614
-0.023346193 -0.008890432 -0.06784546 0.19713823 -0.0449127 0.030927362 0.14548366 -0.00078020256
0.09752631 -0.015693914 0.10154538 -0.086227834 -0.08051069 -0.17559338 0.17461775 -0.17409095
0.107899345 0.01705333 -0.0771646 -0.09935694 0.08462343 0.094207674 0.1496126 0.14256953
-0.01746815 0.06590811 -0.11734015 0.18004233 -0.0052690515 -0.107153505 -0.086476855 0.016020497
-0.034429092 -0.06402182 0.19910818 -0.0030548319 0.09028936 0.0218038 0.008267509 0.12482261
0.015052763 -0.09245259 -0.010143442 0.18383862 -0.098384716 0.054982364 -0.010059907 -0.1195591
-0.015139184 -0.086931154 -0.2136072 0.02476478 0.17049375 0.077705584 -0.04100962 -0.04258152
0.14754923 0.020241989 -0.08997091 0.095371254 0.02192919 -0.0446303 0.09651353 0.04096173
-0.08157046 -0.03685403 -0.021380125 -0.026054218 0.16927229 0.05806504 0.11793424 0.032866184
0.07886989 -0.025574246 0.0120492475 0.021929447 -0.020180313
00000000: 2a17 de3d 8af8 a0bc f929 533c 70c0 8fbd
00000010: 29c4 793e 9800 d9bd 3afa 763e 6eb9 d3bc
00000020: 2718 793d 895b 53be 6b6c c1bc f5f2 e43b
00000030: ec09 013d c845 82be 12a1 243e d439 1e3c
00000040: d07a bb3d c8ee c33c e2e8 163c 081e 4cbc
00000050: 6f4a b8bc 693c e03d 804e 943d ca64 383c
00000060: 34f4 a4bc 6a02 f8bc cffe 97bd a71b 82bd
00000070: 0ce5 30be 60f9 c73b a78e cdbc c67c 363b
00000080: 8c65 2f3e 4205 763d f286 8e3d 3cc6 21bd
00000090: 4349 563d 5204 0f3c 84d2 163e ee23 623e
000000a0: 1613 b0bd 0311 123c 9607 2ebe 2ac8 13be
000000b0: cd42 a73c 12c0 863d 2f38 be3d 2883 00be
000000c0: 670d 8f3c f0a3 3b3d 7cdb d13c a95c 34bd
000000d0: 7b1d 9dbc a49e 3a3c 118a f73c 13ca d93c
000000e0: 8440 bfbc 2da9 11bc 8ff2 8abd 9bde 493e
000000f0: 61f6 37bd 615b fd3c abf9 143e 8286 4cba
00000100: e0bb c73d 8690 80bc 06f7 cf3d 3898 b0bd
00000110: cae2 a4bd c0ce 33be ffce 323e e644 32be
00000120: 55fa dc3d 6db3 8b3c 7908 9ebd a77b cbbd
00000130: 0d4f ad3d f4ef c03d 0c34 193e bffd 113e
00000140: 5e19 8fbc d5fa 863d 0850 f0bd 045d 383e
00000150: 02a8 acbb 4c73 dbbd c71a b1bd 6b3d 833c
00000160: 8505 0dbd df1d 83bd 04e3 4b3e 9333 48bb
00000170: a1e9 b83d e29d b23c 7274 073c ffa2 ff3d
00000180: dd9f 763c c957 bdbd ae30 26bc 3140 3c3e
00000190: ed7d c9bd 3035 613d 4fd2 24bc 67db f4bd
000001a0: 570a 78bc f608 b2bd d9bb 5abe 82df ca3c
000001b0: ea95 2e3e 1b24 9f3d b4f9 27bd f669 2ebd
000001c0: 2517 173e 87d2 a53c ab42 b8bd 0152 c33d
000001d0: d8a4 b33c 43ce 36bd e3a8 c53d 7dc7 273d
000001e0: 6a0e a7bd 40f4 16bd 5f25 afbc a86f d5bc
000001f0: b755 2d3e 9bd5 6d3d 8287 f13d b19e 063d
00000200: 8986 a13d 1581 d1bc 356a 453c 62a5 b33c
00000210: 2f51 a5bc

fingerprints_hidden.0.2.running_var f4 [133]
0.040740106 0.035083756 0.034340214 0.034409024 0.045190953 0.038616512 0.03530076 0.03995891
0.033140156 0.03984956 0.031535115 0.033357743 0.033580415 0.038773812 0.035410665 0.039138447
0.03541479 0.034838326 0.038304184 0.04734772 0.039909154 0.035397246 0.03273628 0.03532251
0.035650935 0.030673277 0.033684388 0.03820273 0.03895974 0.03296515 0.039068677 0.03477999
0.045002375 0.036389053 0.034729917 0.037619635 0.029861601 0.033312216 0.034285378 0.037618723
0.03838501 0.03778474 0.048991065 0.039652042 0.039057735 0.03358438 0.03528046 0.03715335
0.035453375 0.03731973 0.04029842 0.03730671 0.033661354 0.032339063 0.036926623 0.036173772
0.03553051 0.035754923 0.032833796 0.03928305 0.037137147 0.03703169 0.038720436 0.039679505
0.03607914 0.037884314 0.037430264 0.037932552 0.03336797 0.033944745 0.03365811 0.043106478
0.037061237 0.036534406 0.041807145 0.03493687 0.040610105 0.033882048 0.03825995 0.036840823
0.044148456 0.036663864 0.031658817 0.04029778 0.037067953 0.03603088 0.034331467 0.0346429
0.037300702 0.03564407 0.038449567 0.040396675 0.035587296 0.03429649 0.03239193 0.03538171
0.03918021 0.038785495 0.036285467 0.03294658 0.0390821 0.038663425 0.040197264 0.03728378
0.035803307 0.043371707 0.040550288 0.0355293 0.039177027 0.036808353 0.03569656 0.030739116
0.0334663 0.035722274 0.033537574 0.03455489 0.03050301 0.033999566 0.033291496 0.034952335
0.038827267 0.037565358 0.032513667 0.033636075 0.035583355 0.032934662 0.03815586 0.03157606
0.036589153 0.040609036 0.03026573 0.037157193 0.037675865
00000000: 19df 263d fcb3 0f3d 53a8 0c3d 7af0 0c3d
00000010: 261a 393d 592c 1e3d 8897 103d f4ab 233d
00000020: f9bd 073d 4b39 233d f72a 013d 21a2 083d
00000030: 9e8b 093d 4ad1 1e3d c60a 113d a34f 203d
00000040: 190f 113d a2b2 0e3d d9e4 1c3d afef 413d
00000050: c877 233d b4fc 103d 7a16 063d 56ae 103d
00000060: b706 123d 8646 fb3c a4f8 093d 777a 1c3d
00000070: 4094 1f3d 7706 073d 7a06 203d 7675 0e3d
00000080: 6954 383d b00c 153d f540 0e3d 0c17 1a3d
00000090: 51a0 f43c 6472 083d d36e 0c3d 1716 1a3d
000000a0: 9a39 1d3d 2cc4 1a3d dbaa 483d 2e6a 223d
000000b0: 01fb 1f3d c68f 093d 3e82 103d 1c2e 183d
000000c0: 8f37 113d 93dc 183d f50f 253d ecce 183d
000000d0: 7de0 093d f775 043d 5f40 173d f32a 143d
000000e0: 7188 113d c173 123d bb7c 063d 43e7 203d
000000f0: 1f1d 183d 8bae 173d 5299 1e3d fa86 223d
00000100: b8c7 133d 952c 1b3d 7a50 193d 2a5f 1b3d
00000110: daac 083d a509 0b3d 16dd 093d 6b90 303d
00000120: 86cd 173d 1aa5 153d f83d 2b3d f719 0f3d
00000130: c856 263d e7c7 0a3d 77b6 1c3d 67e6 163d
00000140: 03d5 343d d92c 163d adac 013d 490f 253d
00000150: 91d4 173d 1e95 133d 279f 0c3d b7e5 0d3d
00000160: 9fc8 183d 84ff 113d 4b7d 1d3d fc76 253d
00000170: fcc3 113d 7a7a 0c3d 67ad 043d 69ec 103d
00000180: 6e7b 203d 8add 1e3d 12a0 143d fef2 063d
00000190: 8d14 203d 8a5d 1e3d e3a5 243d e0b6 183d
000001a0: 7da6 123d 88a6 313d 0f18 263d 2c87 113d
000001b0: 1778 203d 5bc4 163d 8e36 123d 99d0 fb3c
000001c0: f613 093d 8551 123d b25e 093d 6e89 0d3d
000001d0: 73e1 f93c 2143 0b3d aa5c 083d 2e2a 0f3d
000001e0: 5709 1f3d 22de 193d 0d2d 053d fbc5 093d
000001f0: dabf 113d 7fe6 063d 5249 1c3d e655 013d
00000200: 82de 153d a955 263d d6ef f73c 2432 183d
00000210: 0252 1a3d

fingerprints_hidden.1.1.weight f4 [133, 133]
-0.060342643 0.0068987207 -0.009468359 -0.01518963 0.054221425 0.037640437 0.040815353 -0.08374006
-0.083675146 0.06503213 0.023637913 -0.06481906 -0.0721023 0.07525362 0.078695506 -0.04349399
0.048646577 0.039536305 -0.052341547 -0.018675879 0.07333443 -0.012567778 -0.027871225 -0.059122127
-0.049881246 -0.07600677 -0.06750037 0.075506434 0.003289139 0.061707277 0.024913747 0.058508944
0.012437823 -0.03069835 0.020447165 0.069343016 -0.051151466 0.009049968 -0.014439341 -0.008336469
0.030406186 0.053475235 0.029998045 -0.039910834 0.044725325 0.0049941083 0.05951418 -0.08630145
0.0122220665 -0.06674794 0.010876039 0.06866831 -0.08290691 -0.040230926 -0.056935392 0.03298258
-0.046886783 -0.0017391955 0.036517065 0.05016289 -0.010767592 -0.079050995 0.06783189 -0.060897097
-0.023680074 -0.043110415 0.052128505 -0.06388062 -0.052733716 0.0119733075 -0.029400773 -0.056105077
-0.07860579 0.076336026 -0.012638643 -0.07697982 -0.06560406 0.02141813 0.045429185 -0.037808802
-0.04627127 -0.07760062 -0.052627135 0.064593434 -0.034002602 -0.08361935 -0.004336106 -0.07446191
-0.03272449 0.067367814 0.07680944 0.007496515 -0.06999778 -0.068076156 0.05129753 0.00039313152
-0.081864834 0.036006194 0.05667303 -0.0044291927 0.026395358 0.022348255 0.005759169 0.054667983
-0.062110625 0.0012441673 0.0055089025 0.02042201 -0.0013781317 0.036062438 -0.012854187 0.055353843
-0.022281863 0.026504042 -0.00020272634 0.06253394 -0.070141345 0.07176005 0.049180083 -0.028869377
0.042735092 -0.06896975 0.00996727 0.017429972 0.063825965 0.050017234 -0.05960895 -0.033591494
0.021247862 0.05218145 0.035206996 0.073918186 0.011847254 0.04218576 -0.03839319 0.025270171
0.008427743 0.04046139 0.033027038 -0.023889482 -0.07641487 0.061359596 -0.053260013 -0.030545302
-0.047186337 0.061303552 -0.06494518 -0.06544586 -0.027804457 0.06433655 0.029350117 0.043033287
-0.0042256005 0.012418067 -0.06574297 -0.05949477 -0.006795217 0.0640368 -0.023263007 -0.034929883
-0.07130611 -0.029437788 0.08615545 -0.03371171 -0.02615112 -0.07575185 0.077659816 0.056213956
-0.0016410659 0.002931045 0.07695272 -0.02904516 0.0055403444 -0.071035236 0.047126643 -0.025982464
-0.060431983 0.054076515 0.05523485 -0.030981839 -0.029321825 -0.05800366 0.021265073 0.06878813
-0.02976311 0.077357434 -0.012329263 -0.0323465 -0.04758147 0.059249643 -0.01789264 -0.0100373505
0.060972437 -0.031077292 0.0018288237 -0.04792478 -0.008949302 -0.032409497 -0.063147984 -0.051283177
-0.07295982 0.081714615 -0.07164658 0.0066265673 0.013351462 -0.07897449 -0.006702835 -0.033108108
0.03623794 0.009832868 -0.047638375 0.0023401526 0.06515617 -0.0011856717 0.013629198 0.004755375
0.074943036 -0.06369864 0.020003838 0.06920339 0.059918102 0.043483365 -0.03337099 -0.06983163
-0.06407507 -0.01179307 -0.047407188 0.020325989 -0.045053635 -0.024420625 0.02694804 -0.07176092
-0.07957265 0.046356678 -0.059943523 -0.04742455 0.05393281 0.03269423 0.058107242 -0.078438
0.018617328 0.045565918 -0.065322764 0.08129903 -0.017748242 -0.0117378365 -0.036566015 -0.072851025
-0.01955672 0.04044745 -0.08048776 0.032390058 -0.015056161 0.0077412953 0.026741486 0.04494424
00000000: d929 77bd aa0e e23b 2d21 1bbc eddd 78bc
00000010: 4917 5e3d dc2c 1a3d 002e 273d e97f abbd
00000020: e05d abbd 912f 853d 4ca4 c13c dbbf 84bd
00000030: 5faa 93bd 921e 9a3d 1c2b a13d c126 32bd
00000040: a241 473d d2f0 213d 1764 56bd 28fe 98bc
00000050: 5d30 963d 15e9 4dbc 3252 e4bc 0b2a 72bd
00000060: 4750 4cbd 70a9 9bbd a23d 8abd 1ea3 9a3d
00000070: 988e 573b c5c0 7c3d ea17 cc3c 13a7 6f3d
00000080: 03c8 4b3c 1b7b fbbc d080 a73c b603 8e3d
00000090: 3384 51bd 5146 143c fc92 6cbc af95 08bc
000000a0: 6516 f93c d908 5b3d 76be f53c 8b79 23bd
000000b0: e731 373d 9ea5 a33b 24c5 733d d1be b0bd
000000c0: 103f 483c 25b3 88bd 6a31 323c f9a1 8c3d
000000d0: 19cb a9bd 2fc9 24bd 1635 69bd be18 073d
000000e0: 5b0c 40bd b8f5 e3ba eb92 153d 9a77 4d3d
000000f0: 8e6a 30bc 7de5 a1bd 72eb 8a3d 3c6f 79bd
00000100: b7fc c1bc 8c94 30bd b384 553d d8d3 82bd
00000110: 4fff 57bd b12b 443c e4d9 f0bc 70ce 65bd
00000120: 13fc a0bd 1056 9c3d 5012 4fbc 99a7 9dbd
00000130: 6c5b 86bd 1375 af3c f413 3a3d 67dd 1abd
00000140: f186 3dbd 13ed 9ebd 8d8f 57bd 9049 843d
00000150: 5046 0bbd 9f40 abbd e515 8ebb 7c7f 98bd
00000160: 1d0a 06bd 23f8 893d 454e 9d3d 53a5 f53b
00000170: ff5a 8fbd 836b 8bbd 5c1d 523d 381d ce39
00000180: c0a8 a7bd 3b7b 133d fb21 683d c322 91bb
00000190: 143b d83c b013 b73c 69b7 bc3b 89eb 5f3d
000001a0: b667 7ebd 5413 a33a 0684 b43b 0f4c a73c
000001b0: 6da2 b4ba 35b6 133d 5e9a 52bc b6ba 623d
000001c0: 7488 b6bc 011f d93c f092 54b9 cb11 803d
000001d0: 44a6 8fbd eff6 923d 0e71 493d 797f ecbc
000001e0: fe0a 2f3d 0340 8dbd c34d 233c 4dc9 8e3c
000001f0: 30b7 823d dfde 4c3d 8428 74bd 3c97 09bd
00000200: ff0f ae3c 37bc 553d 3635 103d 6b62 973d
00000210: fc1a 423c faca 2c3d 2d42 1dbd 6403 cf3c
00000220: 8414 0a3c d8ba 253d 5c47 073d e0b3 c3bc
00000230: 667f 9cbd 3354 7b3d 2c27 5abd 243a fabc
00000240: 7646 41bd 6f19 7b3d fb01 85bd 7b08 86bd
00000250: 2cc6 e3bc e2c2 833d a86f f03c ac43 303d
00000260: e876 8abb 2675 4b3c 40a4 86bd cab0 73bd
00000270: 69aa debb ba25 833d 1092 bebc a312 0fbd
00000280: f008 92bd 8427 f1bc 4572 b03d 4a15 0abd
00000290: e03a d6bc c923 9bbd 1c0c 9f3d 9b40 663d
000002a0: 0919 d7ba c616 403b 6399 9d3d 1ef0 edbc
000002b0: c78b b53b ec7a 91bd de07 413d 2dd9 d4bc
000002c0: 8787 77bd 567f 5d3d f03d 623d a0cd fdbc
000002d0: 5334 f0bc 3f95 6dbd 1734 ae3c cbe0 8c3d
000002e0: c4d1 f3bc 936d 9e3d ad00 4abc c37d 04bd
000002f0: cae4 42bd c1af 723d 9693 92bc b373 24bc
00000300: 3cbe 793d ce95 febc 24b5 ef3a c64c 44bd
00000310: 18a0 12bc d2bf 04bd bb53 81bd 4f0e 52bd
00000320: f56b 95bd fe59 a73d 71bb 92bd ad23 d93b
00000330: 17c0 5a3c 61bd a1bd 75a3 dbbb 5e9c 07bd
00000340: 3c6e 143d 0a1a 213c 7520 43bd 3f5d 193b
00000350: 9970 853d 8a68 9bba 004d 5f3c fad2 9b3b
00000360: bc7b 993d 6f74 82bd 17df a33c 82ba 8d3d
00000370: af6c 753d 9d1b 323d 05b0 08bd e303 8fbd
00000380: ca39 83bd b837 41bc 0a2e 42bd b082 a63c
00000390: 298a 38bd c30d c8bc 23c2 dc3c 64f7 92bd
000003a0: fcf6 a2bd 80e0 3d3d 5787 75bd 3f40 42bd
000003b0: a6e8 5c3d 63ea 053d dc01 6e3d 1aa4 a0bd
000003c0: 5e83 983c 54a3 3a3d f1c7 85bd 1b80 a63d
000003d0: c364 91bc 0e50 40bc 3fc6 15bd eb32 95bd
000003e0: 6a35 a0bc 3aac 253d c4d6 a4bd 70ab 043d
000003f0: 1eae 76bc b1aa fd3b f610 db3c 7417 383d

fingerprints_hidden.1.1.bias f4 [133]
-0.016910981 2.7275019e-06 -0.06523057 0.044012465 0.00020619304 -0.017250458 0.048312817 -0.06894031
0.00038186266 -0.021684485 -0.030860359 0.044396114 0.068248816 -0.060611427 0.068273775 0.06458452
-0.050226733 -0.0053190785 0.06607071 0.00041774375 -0.05242357 0.03137173 -0.032397225 -0.01803844
-0.010605243 0.018202752 0.031405788 0.047543086 -0.04867145 -0.061193597 0.029915858 -1.5780073e-05
0.052205686 0.015875021 0.006526959 0.075122826 -9.717963e-05 -0.04445075 -0.07200283 -0.038140982
-0.029550353 0.0036803274 0.057881333 0.04451842 -0.048428766 0.035904747 0.062389154 0.004591224
0.06267759 0.07293298 0.011981616 -0.05820121 -0.014216274 0.002028904 0.02966382 0.05263189
-0.00022349539 0.04832321 0.008623829 -0.06344892 0.05967413 0.042856116 0.07063354 0.060634654
-0.020487055 7.962791e-05 0.04069369 0.018921234 -0.0057018213 0.06853098 0.038684167 -0.072486095
-0.038500626 -0.041796673 -0.049930837 0.01499879 0.007271264 -0.055550642 -0.030434463 0.010770205
0.030913522 -0.02051425 -0.0018458223 0.00073536107 0.035213556 0.05945049 -0.006006859 0.013046885
-0.015521999 -0.07177451 -0.0043896977 -0.049503468 -0.07087184 -0.057838775 -0.03660063 0.056371946
-0.02821612 -0.045372814 0.038589243 -0.0007254533 0.04486638 0.009362097 -0.047962766 0.009452043
0.07405756 0.030759582 0.01204998 -0.064256616 0.05850051 -0.04464453 -0.04041817 0.02198088
-0.035371747 0.0063274023 -0.057637595 -0.052212566 -0.04722331 -0.04707068 -0.020542413 -0.00028853334
0.012186472 -0.011941899 0.027984312 -0.043737456 0.049068265 0.047286954 0.055788513 -0.050958358
-1.7829352e-05 0.008635622 0.06488616 -0.008265462 -0.021250654
00000000: e688 8abc 200a 3736 9b97 85bd 6a46 343d
00000010: 8635 5839 d550 8dbc a9e3 453d 9430 8dbd
00000020: bd34 c839 a9a3 b1bc ddce fcbc b3d8 353d
00000030: 09c6 8b3d b043 78bd 1fd3 8b3d e444 843d
00000040: 8cba 4dbd aa4b aebb 1550 873d 9e04 db39
00000050: 19ba 56bd a57f 003d f4b2 04bd 5ac5 93bc
00000060: 9dc1 2dbc f01d 953c 5ba3 003d 8abc 423d
00000070: b75b 47bd 23a6 7abd 1a12 f53c 735f 84b7
00000080: a1d5 553d 550c 823c 1ae0 d53b ffd9 993d
00000090: ebcc cbb8 fd11 36bd 3876 93bd b839 1cbd
000000a0: 9513 f2bc a631 713b fa14 6d3d f258 363d
000000b0: 3e5d 46bd db10 133d c58b 7f3d fa71 963b
000000c0: 1c5d 803d e35d 953d 8a4e 443c 6464 6ebd
000000d0: 60eb 68bc 5cf7 043b 8a01 f33c 8994 573d
000000e0: 165a 6ab9 8fee 453d f64a 0d3c 82f1 81bd
000000f0: dc6c 743d e589 2f3d 51a8 903d 0b5c 783d
00000100: 78d4 a7bc e9fd a638 6dae 263d b400 9b3c
00000110: 58d6 babb f859 8c3d 4a73 1e3d 9773 94bd
00000120: d5b2 1dbd fd32 2bbd 4784 4cbd 7cbd 753c
00000130: c943 ee3b 1289 63bd b251 f9bc 8475 303c
00000140: 5b3e fd3c 800d a8bc 85ef f1ba 3fc5 403a
00000150: 173c 103d 5b82 733d 2fd5 c4bb 9ac2 553c
00000160: fc4f 7ebc 84fe 92bd 74d7 8fbb 26c4 4abd
00000170: 4125 91bd 5ae8 6cbd 8bea 15bd 45e6 663d
00000180: 7e25 e7bc d8d8 39bd c10f 1e3d 592c 3eba
00000190: cfc5 373d 7b63 193c 9b74 44bd bedc 1a3c
000001a0: 7dab 973d 85fb fb3c 486d 453c f998 83bd
000001b0: 3b9e 6f3d 2fdd 36bd 868d 25bd 3f11 b43c
000001c0: f7e1 10bd 1956 cf3b 6615 6cbd d8dc 55bd
000001d0: 3b6d 41bd 2fcd 40bd 9048 a8bc 4a46 97b9
000001e0: c5a9 473c f4a7 43bc 5b3f e53c 0c26 33bd
000001f0: cefb 483d f7af 413d 7f82 643d b6b9 50bd
00000200: 3e90 95b7 6d7c 0d3c 09e3 843d dc6b 07bc
00000210: da15 aebc

fingerprints_hidden.1.2.weight f4 [133]
0.9888423 0.98884344 0.98837715 0.9886676 0.98886174 0.9886575 0.98882157 0.98832756
0.98869294 0.9887711 0.9885882 0.98822945 0.98874825 0.98886836 0.9886791 0.98845965
0.98898 0.98885095 0.9887391 0.9886679 0.98863703 0.98846996 0.9888358 0.9887516
0.9892298 0.9886811 0.98867023 0.988574 0.9888507 0.9888372 0.9884569 0.9885265
0.98919505 0.98911285 0.98896855 0.98863935 0.9891196 0.9891762 0.9885208 0.98873276
0.98869246 0.98898226 0.98875386 0.9885236 0.98844475 0.98879415 0.9886654 0.988911
0.9883902 0.98884153 0.98882437 0.9893241 0.98892957 0.98879933 0.98877895 0.98886687
0.9892975 0.9890901 0.98866916 0.9888476 0.9889151 0.9887433 0.9888746 0.98893976
0.98903984 0.98871773 0.98853534 0.9885814 0.98868454 0.9890751 0.98905575 0.98867756
0.98851144 0.9888552 0.9886991 0.98864454 0.9890539 0.98864573 0.98858434 0.9887177
0.98863196 0.9887736 0.98853487 0.98888856 0.98870045 0.9889786 0.98844653 0.9889377
0.9885119 0.988867 0.9881213 0.98815435 0.9890195 0.9887351 0.9885553 0.98874575
0.988648 0.98825616 0.9888245 0.9886835 0.98877263 0.9891565 0.988886 0.98841804
0.9888121 0.98864496 0.9889528 0.9888013 0.98847985 0.988525 0.98906755 0.9889215
0.98937964 0.9886463 0.98912865 0.98899275 0.98863107 0.98861235 0.98923045 0.98874944
0.98851216 0.98866576 0.9885088 0.9890996 0.9887473 0.9887065 0.9884295 0.9889553
0.9888799 0.98904246 0.98878604 0.9888407 0.98864263
00000000: c524 7d3f d824 7d3f 4906 7d3f 5219 7d3f
00000010: 0b26 7d3f a818 7d3f 6923 7d3f 0903 7d3f
00000020: fb1a 7d3f 1a20 7d3f 1e14 7d3f 9bfc 7c3f
00000030: 9b1e 7d3f 7a26 7d3f 131a 7d3f b10b 7d3f
00000040: cb2d 7d3f 5625 7d3f 011e 7d3f 5719 7d3f
00000050: 5117 7d3f 5e0c 7d3f 5824 7d3f d31e 7d3f
00000060: 2a3e 7d3f 341a 7d3f 7e19 7d3f 3013 7d3f
00000070: 5225 7d3f 6f24 7d3f 830b 7d3f 1310 7d3f
00000080: e33b 7d3f 8036 7d3f 0b2d 7d3f 7817 7d3f
00000090: f136 7d3f a73a 7d3f b30f 7d3f 971d 7d3f
000000a0: f31a 7d3f f12d 7d3f f91e 7d3f e20f 7d3f
000000b0: b70a 7d3f 9d21 7d3f 2d19 7d3f 4529 7d3f
000000c0: 2407 7d3f b824 7d3f 9823 7d3f 5844 7d3f
000000d0: 7d2a 7d3f f421 7d3f 9e20 7d3f 6126 7d3f
000000e0: 9a42 7d3f 0235 7d3f 6c19 7d3f 1e25 7d3f
000000f0: 8a29 7d3f 481e 7d3f e326 7d3f 282b 7d3f
00000100: b731 7d3f 9b1c 7d3f a710 7d3f ac13 7d3f
00000110: 6e1a 7d3f 0734 7d3f c232 7d3f f919 7d3f
00000120: 160f 7d3f 9d25 7d3f 621b 7d3f cf17 7d3f
00000130: a332 7d3f e317 7d3f dd13 7d3f 9a1c 7d3f
00000140: fc16 7d3f 4420 7d3f 9f10 7d3f cd27 7d3f
00000150: 791b 7d3f b42d 7d3f d50a 7d3f 052b 7d3f
00000160: 1e0f 7d3f 6326 7d3f 84f5 7c3f aff7 7c3f
00000170: 6230 7d3f be1d 7d3f f611 7d3f 711e 7d3f
00000180: 0918 7d3f 5bfe 7c3f 9a23 7d3f 5d1a 7d3f
00000190: 3420 7d3f 5c39 7d3f a227 7d3f f708 7d3f
000001a0: ca22 7d3f d617 7d3f 032c 7d3f 1522 7d3f
000001b0: 040d 7d3f f90f 7d3f 8833 7d3f f629 7d3f
000001c0: fc47 7d3f ed17 7d3f 8937 7d3f a12e 7d3f
000001d0: ed16 7d3f b315 7d3f 353e 7d3f af1e 7d3f
000001e0: 220f 7d3f 3319 7d3f ea0e 7d3f a235 7d3f
000001f0: 8b1e 7d3f df1b 7d3f b709 7d3f 2d2c 7d3f
00000200: 3c27 7d3f e331 7d3f 1521 7d3f aa24 7d3f
00000210: af17 7d3f

fingerprints_hidden.1.2.bias f4 [133]
-0.0015719398 0.0016576907 0.00079863507 0.0040391055 0.000102676284 0.0029859655 0.00028198768 -0.0017170559
0.00045520745 0.00022860838 0.00254407 0.0019318074 0.00011898864 -0.0008840375 0.0014655652 0.0025145202
-0.0018877933 -0.0011660409 -0.002636637 0.00027401504 -0.0009420205 0.002099738 0.00061084534 0.0006770888
-3.4254932e-05 -0.0006650432 -0.0016390405 0.0003720955 0.0021440317 -0.0019462528 0.0008742255 0.0024891903
0.003911311 -0.001588773 0.0013497641 2.6326721e-05 0.000701048 0.0009797015 0.00012775343 0.0015980075
-0.002401827 -0.00036850988 0.0018715613 -0.0016448409 5.036254e-05 0.0009873733 0.0009052018 -0.0010688498
-0.0008655392 0.0005470677 -0.0036580553 -0.00088904274 -0.0012461032 -0.003302133 0.00038966726 -0.0011770813
6.6426604e-05 0.00036584315 0.001389495 -0.0009010425 -0.0015368348 -0.0015854533 -0.00018287796 -0.000110810346
-0.0030307025 -0.0009774892 -0.00021741871 0.0004953663 -0.00049065205 0.0013748894 -0.0020708926 -0.000105532454
0.0019904564 0.0029246905 -0.0011264983 -0.0016332784 0.00014700543 0.0011001085 0.002121685 4.483651e-05
-0.00048472857 -0.0018549404 0.0035773406 -0.0009625435 0.00071159605 0.0017404733 0.00051073404 -0.001855849
-0.0016500918 0.0014675703 0.0026606175 0.00056592765 -0.0006132588 -0.0010934867 -0.001339322 -0.0012764877
-0.00111577 0.001060163 -0.00025664322 -0.00065521116 0.0015032921 0.0018066524 0.0020450118 0.0032144696
-0.0027521548 0.0045272624 -0.0019954906 -0.00110306 -0.0012412701 0.0008670143 0.002129081 0.001475842
0.0004043248 0.0024553898 0.00042297566 -0.0025188364 -0.0019398392 0.0008671564 -0.002934412 -0.0008301427
-0.0008837029 -0.0014620764 0.0026457778 0.001107487 -0.0010846149 0.0023669775 0.000955877 -0.00017999005
-0.0011667655 0.0006171765 -0.0030903472 -0.0029720769 -0.0016327642
00000000: 8c09 ceba df46 d93a 7e5b 513a 795a 843b
00000010: e953 d738 30b0 433b bfd7 9339 d60e e1ba
00000020: e9a8 ee39 98b6 6f39 69ba 263b b334 fd3a
00000030: 8a89 f938 c1be 67ba 3518 c03a a6ca 243b
00000040: d56f f7ba d7d5 98ba 6ecb 2cbb ada9 8f39
00000050: edf1 76ba c29b 093b 2321 203a a97e 313a
00000060: f4ac 0fb8 4b56 2eba 13d5 d6ba d015 c339
00000070: e282 0c3b 6819 ffba 482c 653a af21 233b
00000080: 742a 803b 603e d0ba 91ea b03a 34d8 dc37
00000090: 89c6 373a 5469 803a 8df5 0539 3c74 d13a
000000a0: f867 1dbb 8f34 c1b9 2d4f f53a b497 d7ba
000000b0: 5e3c 5338 c06a 813a 114b 6d3a a618 8cba
000000c0: 5ae5 62ba 1869 0f3a fcbb 6fbb a60e 69ba
000000d0: 4954 a3ba 9968 58bb 414c cc39 4b48 9aba
000000e0: 834e 8b38 a3ce bf39 b71f b63a f033 6cba
000000f0: 9e6f c9ba fcce cfba eec2 3fb9 da62 e8b8
00000100: c09e 46bb 181f 80ba e4fa 63b9 78db 013a
00000110: 1a9f 00ba a235 b43a d0b7 07bb 4e51 ddb8
00000120: 5172 023b 2aac 3f3b 03a7 93ba bb13 d6ba
00000130: 7825 1a39 8431 903a f80b 0b3b d60e 3c38
00000140: 2b23 feb9 7921 f3ba d171 6a3b 3353 7cba
00000150: 678a 3a3a 9820 e43a c8e2 053a f63f f3ba
00000160: e547 d8ba 7d5b c03a c15d 2e3b c35a 143a
00000170: 1ac3 20ba 5353 8fba 308c afba d24f a7ba
00000180: 073f 92ba 2bf5 8a3a 128e 86b9 7ac2 2bba
00000190: 1d0a c53a 32cd ec3a 9b05 063b daa9 523b
000001a0: 7f5d 34bb 6e59 943b c7c6 02bb 8d94 90ba
000001b0: 1db2 a2ba 5848 633a 0d88 0b3b 0a71 c13a
000001c0: 8efb d339 9bea 203b d5c2 dd39 1013 25bb
000001d0: 3442 feba e251 633a 444f 40bb ef9d 59ba
000001e0: 4ca8 67ba 25a3 bfba c964 2d3b 1929 913a
000001f0: a329 8eba 4b1f 1b3b d293 7a3a b6bb 3cb9
00000200: 27ee 98ba 04ca 213a 6c87 4abb 2dc7 42bb
00000210: 7a02 d6ba

fingerprints_hidden.1.2.running_mean f4 [133]
-0.10092068 -0.1294243 -0.052141212 -0.14036696 0.121666335 0.09190191 0.21680932 -0.17951894
-0.04645037 -0.22865109 -0.12661755 0.23650552 0.19405103 -0.729978 -0.42240158 0.07223335
-0.0969103 0.026696684 0.15768583 0.18158999 -0.024497516 0.09146599 0.0833948 -0.28205985
0.27496716 -0.06929128 0.12112261 0.27858958 -0.11278096 -0.05569934 -0.16317308 0.050488986
0.26987368 0.34979892 -0.11013447 -0.15455863 0.22123787 0.525173 -0.5264622 -0.16668065
0.22179802 -0.31851268 0.021279583 -0.12837845 0.18213257 0.22405392 0.026483456 -0.038242415
-0.023439722 -0.10082413 0.2963322 -0.34576318 0.15726686 -0.3414897 0.18425292 0.097126424
0.04466626 0.11319122 -0.07295314 0.0997322 0.17191918 0.3416405 -0.12223275 -0.08809251
-0.15825352 -0.13955927 -0.056573592 -0.31166148 -0.04663412 -0.24532798 0.44313738 -0.013743086
-0.030662298 0.023940798 0.09386076 0.43259126 -0.35578045 0.20898782 -0.36218965 -0.018340163
0.31887802 0.18750271 0.07132674 0.057436563 0.18559718 0.29024696 0.10629094 0.20315884
-0.03832914 -0.14171183 -0.3101674 0.024805188 -0.05425436 -0.15918976 -0.12675758 0.38584268
0.34169662 -0.09683643 0.011742789 -0.06027959 0.12039838 -0.11457003 0.04176279 -0.10323011
0.1504916 0.48562542 0.009267825 -0.3192701 0.15045413 -0.079414435 0.04475154 0.18925685
0.042021096 -0.4495858 -0.4790273 0.15501145 0.050076608 -0.23733759 -0.17576681 0.5122511
0.083819315 0.3403165 -0.2250511 0.25566345 0.036076963 0.2820848 -0.28433025 -0.21058318
-0.072426826 0.21014763 -0.031969827 -0.19730145 0.17382422
00000000: 80af cebd ce87 04be 0692 55bd 5bbc 0fbe
00000010: 332c f93d 1237 bc3d 4303 5e3e d0d3 37be
00000020: be42 3ebd 8323 6abe 08a8 01be 812e 723e
00000030: 50b5 463e d7df 3abf 0545 d8be 14ef 933d
00000040: e878 c6bd 01b3 da3c 6578 213e baf2 393e
00000050: 04af c8bc 8552 bb3d e5ca aa3d 266a 90be
00000060: 7fc8 8c3e 96e8 8dbd 220f f83d 4ba3 8e3e
00000070: b4f9 e6bd fe24 64bd d816 27be 8acd 4e3d
00000080: e22c 8a3e d818 b33e 2e8e e1bd 9e44 1ebe
00000090: 2e8c 623e bd71 063f 3ac6 06bf 55ae 2abe
000000a0: 051f 633e 1814 a3be 8552 ae3c a475 03be
000000b0: f680 3a3e 646e 653e d5f3 d83c 14a4 1cbd
000000c0: a904 c0bc e27c cebd dbb8 973e df07 b1be
000000d0: 900a 213e bdd7 aebe ccac 3c3e 38ea c63d
000000e0: f8f3 363d ccd0 e73d 7568 95bd 6540 cc3d
000000f0: 950b 303e 81eb ae3e 2a55 fabd d969 b4bd
00000100: 360d 22be a0e8 0ebe b6b9 67bd 1892 9fbe
00000110: 6b03 3fbd 4237 7bbe e7e2 e23e ae2a 61bc
00000120: 802f fbbc 7e1f c43c 123a c03d 9a7c dd3e
00000130: db28 b6be e700 563e ec70 b9be 1c3e 96bc
00000140: fb43 a33e b600 403e c113 923d 9a42 6b3d
00000150: 300d 3e3e 409b 943e 10af d93d df08 503e
00000160: 04ff 1cbd e81c 11be 43ce 9ebe 4034 cb3c
00000170: d239 5ebd a402 23be bdcc 01be 2c8d c53e
00000180: dcf2 ae3e 2e52 c6bd d464 403c bbe7 76bd
00000190: 6d93 f63d b1a3 eabd 760f 2b3d 4f6a d3bd
000001a0: 781a 1a3e e5a3 f83e 13d8 173c 5f77 a3be
000001b0: a610 1a3e 09a4 a2bd 644d 373d 8ccc 413e
000001c0: 501e 2c3d 1c30 e6be 1143 f5be 52bb 1e3e
000001d0: 211d 4d3d a008 73be 37fc 33be e322 033f
000001e0: 76a9 ab3d f73d ae3e cc73 66be 52e6 823e
000001f0: 70c5 133d 6b6d 903e bc93 91be 1ea3 57be
00000200: 8454 94bd f130 573e cbf2 02bd 6409 4abe
00000210: fafe 313e

fingerprints_hidden.1.2.running_var f4 [133]
0.26492658 0.24348949 0.27149555 0.24196702 0.27026284 0.24334079 0.225073 0.20494923
0.24812949 0.2600892 0.18292528 0.23968774 0.29026818 0.23050393 0.24596219 0.24693143
0.20049363 0.2199643 0.26040322 0.24146646 0.26634806 0.23993939 0.23279719 0.27408665
0.29127014 0.24520148 0.23187841 0.22945176 0.24769244 0.24993795 0.27285868 0.23630399
0.26127422 0.24991168 0.25306097 0.2125478 0.25149 0.23909059 0.25261965 0.24223873
0.25846055 0.2861973 0.28755346 0.2585791 0.28664285 0.28777832 0.27002954 0.23549007
0.2402641 0.2524763 0.28460088 0.25138402 0.22112125 0.21861216 0.2767482 0.21044257
0.24355434 0.24204294 0.27338448 0.30474275 0.25096434 0.23312405 0.27202436 0.27126092
0.26463813 0.2260255 0.25870237 0.24571072 0.25766647 0.25291178 0.23730417 0.24589035
0.25339994 0.2438583 0.26366404 0.24921107 0.28325486 0.2718635 0.21600996 0.25394762
0.2552738 0.2555801 0.2227111 0.22566253 0.26308683 0.2567379 0.23353688 0.2568267
0.25843307 0.2642018 0.25530964 0.27060547 0.22121295 0.23551151 0.23889905 0.25455493
0.23765795 0.23151545 0.29996133 0.24230963 0.2539055 0.21147193 0.1913261 0.28921428
0.26904187 0.26596758 0.22734106 0.22550552 0.2342935 0.23764206 0.25983307 0.22483511
0.2661826 0.2717981 0.27415222 0.23746412 0.23976468 0.21298659 0.25636187 0.26437673
0.24784102 0.2494676 0.21047075 0.28939897 0.24485642 0.30570173 0.25612354 0.23090674
0.2682237 0.25431126 0.25056297 0.2522476 0.25510147
00000000: 75a4 873e 4f55 793e 7701 8b3e 34c6 773e
00000010: e45f 8a3e 542e 793e 8979 663e 36de 513e
00000020: a815 7e3e 692a 853e c450 3b3e b470 753e
00000030: 089e 943e 3909 6c3e 83dd 7b3e 98db 7c3e
00000040: 344e 4d3e 523e 613e 9253 853e fc42 773e
00000050: c65e 883e acb2 753e 6362 6e3e 1655 8c3e
00000060: 5c21 953e 1916 7b3e 8971 6d3e 67f5 6a3e
00000070: 16a3 7d3e bcef 7f3e 22b4 8b3e acf9 713e
00000080: bcc5 853e d9e8 7f3e 3591 813e 21a6 593e
00000090: 4cc3 803e 2ad4 743e 5d57 813e 6e0d 783e
000000a0: f154 843e 7488 923e 353a 933e 7b64 843e
000000b0: dac2 923e ae57 933e 5041 8a3e 4f24 713e
000000c0: cb07 763e 9344 813e 35b7 913e 68b5 803e
000000d0: 9c6d 623e dedb 5f3e f1b1 8d3e 427e 573e
000000e0: 4f66 793e 1bda 773e 0df9 8b3e 3e07 9c3e
000000f0: 667e 803e 12b8 6e3e c746 8b3e b6e2 8a3e
00000100: a67e 873e 3b73 673e a374 843e 979b 7b3e
00000110: dcec 833e a77d 813e ddff 723e aeca 7b3e
00000120: a3bd 813e fdb5 793e f9fe 863e 3031 7f3e
00000130: c806 913e b131 8b3e b731 5d3e 6c05 823e
00000140: 3fb3 823e 65db 823e 610e 643e 1414 673e
00000150: 51b3 863e 2673 833e 4b24 6f3e ca7e 833e
00000160: 5751 843e 7545 873e f2b7 823e cd8c 8a3e
00000170: a685 623e ee29 713e f4a1 743e 0655 823e
00000180: 9b5c 733e 6312 6d3e 8894 993e 0420 783e
00000190: e7ff 813e 198c 583e fdea 433e e513 943e
000001a0: dbbf 893e e72c 883e 18cc 683e ebea 663e
000001b0: a3ea 6f3e 7158 733e d708 853e 2d3b 663e
000001c0: 1649 883e 1f29 8b3e ae5d 8c3e cb29 733e
000001d0: df84 753e 2819 5a3e dd41 833e 635c 873e
000001e0: 09ca 7d3e 6f74 7f3e a585 573e 1a2c 943e
000001f0: a4bb 7a3e f084 9c3e a022 833e d172 6c3e
00000200: 9e54 893e 1635 823e ca49 803e 9926 813e
00000210: a99c 823e
